{"format": "graph-model", "generatedBy": "2.13.0", "convertedBy": "TensorFlow.js Converter v4.17.0", "signature": {"inputs": {"input_1": {"name": "input_1:0", "dtype": "DT_FLOAT", "tensorShape": {"dim": [{"size": "-1"}, {"size": "20"}, {"size": "63"}]}}}, "outputs": {"output_0": {"name": "Identity:0", "dtype": "DT_FLOAT", "tensorShape": {"dim": [{"size": "-1"}, {"size": "40"}]}}}}, "modelTopology": {"node": [{"name": "StatefulPartitionedCall/sequential/lstm_1/PartitionedCall/TensorArrayV2_1/element_shape", "op": "Const", "attr": {"value": {"tensor": {"dtype": "DT_INT32", "tensorShape": {"dim": [{"size": "2"}]}}}, "dtype": {"type": "DT_INT32"}}}, {"name": "StatefulPartitionedCall/sequential/lstm_1/PartitionedCall/TensorArrayV2_1/num_elements", "op": "Const", "attr": {"value": {"tensor": {"dtype": "DT_INT32", "tensorShape": {}}}, "dtype": {"type": "DT_INT32"}}}, {"name": "StatefulPartitionedCall/sequential/lstm_1/zeros_1/packed/1", "op": "Const", "attr": {"value": {"tensor": {"dtype": "DT_INT32", "tensorShape": {}}}, "dtype": {"type": "DT_INT32"}}}, {"name": "StatefulPartitionedCall/sequential/lstm_1/zeros_1/Const", "op": "Const", "attr": {"value": {"tensor": {"dtype": "DT_FLOAT", "tensorShape": {}}}, "dtype": {"type": "DT_FLOAT"}}}, {"name": "StatefulPartitionedCall/sequential/lstm_1/PartitionedCall/TensorArrayUnstack/TensorListFromTensor/element_shape", "op": "Const", "attr": {"value": {"tensor": {"dtype": "DT_INT32", "tensorShape": {"dim": [{"size": "2"}]}}}, "dtype": {"type": "DT_INT32"}}}, {"name": "StatefulPartitionedCall/sequential/lstm_1/Read/ReadVariableOp", "op": "Const", "attr": {"value": {"tensor": {"dtype": "DT_FLOAT", "tensorShape": {"dim": [{"size": "128"}, {"size": "256"}]}}}, "dtype": {"type": "DT_FLOAT"}}}, {"name": "StatefulPartitionedCall/sequential/lstm_1/strided_slice/stack", "op": "Const", "attr": {"value": {"tensor": {"dtype": "DT_INT32", "tensorShape": {"dim": [{"size": "1"}]}}}, "dtype": {"type": "DT_INT32"}}}, {"name": "StatefulPartitionedCall/sequential/lstm_1/strided_slice/stack_1", "op": "Const", "attr": {"value": {"tensor": {"dtype": "DT_INT32", "tensorShape": {"dim": [{"size": "1"}]}}}, "dtype": {"type": "DT_INT32"}}}, {"name": "StatefulPartitionedCall/sequential/lstm_1/strided_slice/stack_2", "op": "Const", "attr": {"value": {"tensor": {"dtype": "DT_INT32", "tensorShape": {"dim": [{"size": "1"}]}}}, "dtype": {"type": "DT_INT32"}}}, {"name": "StatefulPartitionedCall/sequential/lstm_1/zeros/packed/1", "op": "Const", "attr": {"value": {"tensor": {"dtype": "DT_INT32", "tensorShape": {}}}, "dtype": {"type": "DT_INT32"}}}, {"name": "StatefulPartitionedCall/sequential/lstm_1/zeros/Const", "op": "Const", "attr": {"value": {"tensor": {"dtype": "DT_FLOAT", "tensorShape": {}}}, "dtype": {"type": "DT_FLOAT"}}}, {"name": "StatefulPartitionedCall/sequential/lstm_1/Read_1/ReadVariableOp", "op": "Const", "attr": {"value": {"tensor": {"dtype": "DT_FLOAT", "tensorShape": {"dim": [{"size": "64"}, {"size": "256"}]}}}, "dtype": {"type": "DT_FLOAT"}}}, {"name": "StatefulPartitionedCall/sequential/lstm_1/Read_2/ReadVariableOp", "op": "Const", "attr": {"value": {"tensor": {"dtype": "DT_FLOAT", "tensorShape": {"dim": [{"size": "256"}]}}}, "dtype": {"type": "DT_FLOAT"}}}, {"name": "StatefulPartitionedCall/sequential/lstm_1/PartitionedCall/time", "op": "Const", "attr": {"value": {"tensor": {"dtype": "DT_INT32", "tensorShape": {}}}, "dtype": {"type": "DT_INT32"}}}, {"name": "StatefulPartitionedCall/sequential/lstm/PartitionedCall/TensorArrayV2_1/element_shape", "op": "Const", "attr": {"value": {"tensor": {"dtype": "DT_INT32", "tensorShape": {"dim": [{"size": "2"}]}}}, "dtype": {"type": "DT_INT32"}}}, {"name": "StatefulPartitionedCall/sequential/lstm/zeros_1/packed/1", "op": "Const", "attr": {"value": {"tensor": {"dtype": "DT_INT32", "tensorShape": {}}}, "dtype": {"type": "DT_INT32"}}}, {"name": "StatefulPartitionedCall/sequential/lstm/zeros_1/Const", "op": "Const", "attr": {"value": {"tensor": {"dtype": "DT_FLOAT", "tensorShape": {}}}, "dtype": {"type": "DT_FLOAT"}}}, {"name": "StatefulPartitionedCall/sequential/lstm/PartitionedCall/TensorArrayUnstack/TensorListFromTensor/element_shape", "op": "Const", "attr": {"value": {"tensor": {"dtype": "DT_INT32", "tensorShape": {"dim": [{"size": "2"}]}}}, "dtype": {"type": "DT_INT32"}}}, {"name": "StatefulPartitionedCall/sequential/lstm/Read/ReadVariableOp", "op": "Const", "attr": {"value": {"tensor": {"dtype": "DT_FLOAT", "tensorShape": {"dim": [{"size": "63"}, {"size": "512"}]}}}, "dtype": {"type": "DT_FLOAT"}}}, {"name": "StatefulPartitionedCall/sequential/lstm/strided_slice/stack", "op": "Const", "attr": {"value": {"tensor": {"dtype": "DT_INT32", "tensorShape": {"dim": [{"size": "1"}]}}}, "dtype": {"type": "DT_INT32"}}}, {"name": "StatefulPartitionedCall/sequential/lstm/strided_slice/stack_1", "op": "Const", "attr": {"value": {"tensor": {"dtype": "DT_INT32", "tensorShape": {"dim": [{"size": "1"}]}}}, "dtype": {"type": "DT_INT32"}}}, {"name": "StatefulPartitionedCall/sequential/lstm/strided_slice/stack_2", "op": "Const", "attr": {"value": {"tensor": {"dtype": "DT_INT32", "tensorShape": {"dim": [{"size": "1"}]}}}, "dtype": {"type": "DT_INT32"}}}, {"name": "StatefulPartitionedCall/sequential/lstm/zeros/packed/1", "op": "Const", "attr": {"value": {"tensor": {"dtype": "DT_INT32", "tensorShape": {}}}, "dtype": {"type": "DT_INT32"}}}, {"name": "StatefulPartitionedCall/sequential/lstm/zeros/Const", "op": "Const", "attr": {"value": {"tensor": {"dtype": "DT_FLOAT", "tensorShape": {}}}, "dtype": {"type": "DT_FLOAT"}}}, {"name": "StatefulPartitionedCall/sequential/lstm/Read_1/ReadVariableOp", "op": "Const", "attr": {"value": {"tensor": {"dtype": "DT_FLOAT", "tensorShape": {"dim": [{"size": "128"}, {"size": "512"}]}}}, "dtype": {"type": "DT_FLOAT"}}}, {"name": "StatefulPartitionedCall/sequential/lstm/Read_2/ReadVariableOp", "op": "Const", "attr": {"value": {"tensor": {"dtype": "DT_FLOAT", "tensorShape": {"dim": [{"size": "512"}]}}}, "dtype": {"type": "DT_FLOAT"}}}, {"name": "StatefulPartitionedCall/sequential/lstm/PartitionedCall/time", "op": "Const", "attr": {"value": {"tensor": {"dtype": "DT_INT32", "tensorShape": {}}}, "dtype": {"type": "DT_INT32"}}}, {"name": "StatefulPartitionedCall/sequential/lstm/ones_like/Const", "op": "Const", "attr": {"value": {"tensor": {"dtype": "DT_FLOAT", "tensorShape": {}}}, "dtype": {"type": "DT_FLOAT"}}}, {"name": "StatefulPartitionedCall/sequential/lstm/PartitionedCall/transpose/perm", "op": "Const", "attr": {"value": {"tensor": {"dtype": "DT_INT32", "tensorShape": {"dim": [{"size": "3"}]}}}, "dtype": {"type": "DT_INT32"}}}, {"name": "StatefulPartitionedCall/sequential/lstm/PartitionedCall/strided_slice/stack", "op": "Const", "attr": {"value": {"tensor": {"dtype": "DT_INT32", "tensorShape": {"dim": [{"size": "1"}]}}}, "dtype": {"type": "DT_INT32"}}}, {"name": "StatefulPartitionedCall/sequential/lstm/PartitionedCall/strided_slice/stack_1", "op": "Const", "attr": {"value": {"tensor": {"dtype": "DT_INT32", "tensorShape": {"dim": [{"size": "1"}]}}}, "dtype": {"type": "DT_INT32"}}}, {"name": "StatefulPartitionedCall/sequential/lstm/PartitionedCall/strided_slice/stack_2", "op": "Const", "attr": {"value": {"tensor": {"dtype": "DT_INT32", "tensorShape": {"dim": [{"size": "1"}]}}}, "dtype": {"type": "DT_INT32"}}}, {"name": "StatefulPartitionedCall/sequential/lstm/PartitionedCall/while/loop_counter", "op": "Const", "attr": {"value": {"tensor": {"dtype": "DT_INT32", "tensorShape": {}}}, "dtype": {"type": "DT_INT32"}}}, {"name": "StatefulPartitionedCall/sequential/lstm/PartitionedCall/TensorArrayV2Stack/TensorListStack/element_shape", "op": "Const", "attr": {"value": {"tensor": {"dtype": "DT_INT32", "tensorShape": {"dim": [{"size": "2"}]}}}, "dtype": {"type": "DT_INT32"}}}, {"name": "StatefulPartitionedCall/sequential/lstm/PartitionedCall/transpose_1/perm", "op": "Const", "attr": {"value": {"tensor": {"dtype": "DT_INT32", "tensorShape": {"dim": [{"size": "3"}]}}}, "dtype": {"type": "DT_INT32"}}}, {"name": "StatefulPartitionedCall/sequential/batch_normalization/batchnorm/mul", "op": "Const", "attr": {"value": {"tensor": {"dtype": "DT_FLOAT", "tensorShape": {"dim": [{"size": "128"}]}}}, "dtype": {"type": "DT_FLOAT"}}}, {"name": "StatefulPartitionedCall/sequential/batch_normalization/batchnorm/sub", "op": "Const", "attr": {"value": {"tensor": {"dtype": "DT_FLOAT", "tensorShape": {"dim": [{"size": "128"}]}}}, "dtype": {"type": "DT_FLOAT"}}}, {"name": "StatefulPartitionedCall/sequential/lstm_1/PartitionedCall/transpose/perm", "op": "Const", "attr": {"value": {"tensor": {"dtype": "DT_INT32", "tensorShape": {"dim": [{"size": "3"}]}}}, "dtype": {"type": "DT_INT32"}}}, {"name": "StatefulPartitionedCall/sequential/lstm_1/PartitionedCall/strided_slice/stack", "op": "Const", "attr": {"value": {"tensor": {"dtype": "DT_INT32", "tensorShape": {"dim": [{"size": "1"}]}}}, "dtype": {"type": "DT_INT32"}}}, {"name": "StatefulPartitionedCall/sequential/lstm_1/PartitionedCall/strided_slice/stack_1", "op": "Const", "attr": {"value": {"tensor": {"dtype": "DT_INT32", "tensorShape": {"dim": [{"size": "1"}]}}}, "dtype": {"type": "DT_INT32"}}}, {"name": "StatefulPartitionedCall/sequential/lstm_1/PartitionedCall/strided_slice/stack_2", "op": "Const", "attr": {"value": {"tensor": {"dtype": "DT_INT32", "tensorShape": {"dim": [{"size": "1"}]}}}, "dtype": {"type": "DT_INT32"}}}, {"name": "StatefulPartitionedCall/sequential/lstm_1/PartitionedCall/while/loop_counter", "op": "Const", "attr": {"value": {"tensor": {"dtype": "DT_INT32", "tensorShape": {}}}, "dtype": {"type": "DT_INT32"}}}, {"name": "StatefulPartitionedCall/sequential/lstm_1/PartitionedCall/TensorArrayV2Stack/TensorListStack/element_shape", "op": "Const", "attr": {"value": {"tensor": {"dtype": "DT_INT32", "tensorShape": {"dim": [{"size": "2"}]}}}, "dtype": {"type": "DT_INT32"}}}, {"name": "StatefulPartitionedCall/sequential/lstm_1/PartitionedCall/strided_slice_2/stack", "op": "Const", "attr": {"value": {"tensor": {"dtype": "DT_INT32", "tensorShape": {"dim": [{"size": "1"}]}}}, "dtype": {"type": "DT_INT32"}}}, {"name": "StatefulPartitionedCall/sequential/lstm_1/PartitionedCall/strided_slice_2/stack_1", "op": "Const", "attr": {"value": {"tensor": {"dtype": "DT_INT32", "tensorShape": {"dim": [{"size": "1"}]}}}, "dtype": {"type": "DT_INT32"}}}, {"name": "StatefulPartitionedCall/sequential/lstm_1/PartitionedCall/strided_slice_2/stack_2", "op": "Const", "attr": {"value": {"tensor": {"dtype": "DT_INT32", "tensorShape": {"dim": [{"size": "1"}]}}}, "dtype": {"type": "DT_INT32"}}}, {"name": "StatefulPartitionedCall/sequential/batch_normalization_1/batchnorm/mul", "op": "Const", "attr": {"value": {"tensor": {"dtype": "DT_FLOAT", "tensorShape": {"dim": [{"size": "64"}]}}}, "dtype": {"type": "DT_FLOAT"}}}, {"name": "StatefulPartitionedCall/sequential/batch_normalization_1/batchnorm/sub", "op": "Const", "attr": {"value": {"tensor": {"dtype": "DT_FLOAT", "tensorShape": {"dim": [{"size": "64"}]}}}, "dtype": {"type": "DT_FLOAT"}}}, {"name": "StatefulPartitionedCall/sequential/dense/MatMul/ReadVariableOp", "op": "Const", "attr": {"value": {"tensor": {"dtype": "DT_FLOAT", "tensorShape": {"dim": [{"size": "64"}, {"size": "64"}]}}}, "dtype": {"type": "DT_FLOAT"}}}, {"name": "StatefulPartitionedCall/sequential/dense/BiasAdd/ReadVariableOp", "op": "Const", "attr": {"value": {"tensor": {"dtype": "DT_FLOAT", "tensorShape": {"dim": [{"size": "64"}]}}}, "dtype": {"type": "DT_FLOAT"}}}, {"name": "StatefulPartitionedCall/sequential/batch_normalization_2/batchnorm/mul", "op": "Const", "attr": {"value": {"tensor": {"dtype": "DT_FLOAT", "tensorShape": {"dim": [{"size": "64"}]}}}, "dtype": {"type": "DT_FLOAT"}}}, {"name": "StatefulPartitionedCall/sequential/batch_normalization_2/batchnorm/sub", "op": "Const", "attr": {"value": {"tensor": {"dtype": "DT_FLOAT", "tensorShape": {"dim": [{"size": "64"}]}}}, "dtype": {"type": "DT_FLOAT"}}}, {"name": "StatefulPartitionedCall/sequential/dense_1/MatMul/ReadVariableOp", "op": "Const", "attr": {"value": {"tensor": {"dtype": "DT_FLOAT", "tensorShape": {"dim": [{"size": "64"}, {"size": "32"}]}}}, "dtype": {"type": "DT_FLOAT"}}}, {"name": "StatefulPartitionedCall/sequential/dense_1/BiasAdd/ReadVariableOp", "op": "Const", "attr": {"value": {"tensor": {"dtype": "DT_FLOAT", "tensorShape": {"dim": [{"size": "32"}]}}}, "dtype": {"type": "DT_FLOAT"}}}, {"name": "StatefulPartitionedCall/sequential/dense_2/MatMul/ReadVariableOp", "op": "Const", "attr": {"value": {"tensor": {"dtype": "DT_FLOAT", "tensorShape": {"dim": [{"size": "32"}, {"size": "40"}]}}}, "dtype": {"type": "DT_FLOAT"}}}, {"name": "StatefulPartitionedCall/sequential/dense_2/BiasAdd/ReadVariableOp", "op": "Const", "attr": {"value": {"tensor": {"dtype": "DT_FLOAT", "tensorShape": {"dim": [{"size": "40"}]}}}, "dtype": {"type": "DT_FLOAT"}}}, {"name": "input_1", "op": "Placeholder", "attr": {"shape": {"shape": {"dim": [{"size": "-1"}, {"size": "20"}, {"size": "63"}]}}, "dtype": {"type": "DT_FLOAT"}}}, {"name": "StatefulPartitionedCall/sequential/lstm_1/PartitionedCall/TensorArrayV2_1", "op": "TensorListReserve", "input": ["StatefulPartitionedCall/sequential/lstm_1/PartitionedCall/TensorArrayV2_1/element_shape", "StatefulPartitionedCall/sequential/lstm_1/PartitionedCall/TensorArrayV2_1/num_elements"], "attr": {"shape_type": {"type": "DT_INT32"}, "element_dtype": {"type": "DT_FLOAT"}}, "experimentalType": {"typeId": "TFT_PRODUCT", "args": [{"typeId": "TFT_ARRAY", "args": [{"typeId": "TFT_TENSOR", "args": [{"typeId": "TFT_FLOAT"}]}]}]}}, {"name": "StatefulPartitionedCall/sequential/lstm_1/PartitionedCall/while/enter/_119", "op": "Enter", "input": ["StatefulPartitionedCall/sequential/lstm_1/Read/ReadVariableOp"], "attr": {"is_constant": {"b": false}, "frame_name": {"s": "U3RhdGVmdWxQYXJ0aXRpb25lZENhbGwvc2VxdWVudGlhbC9sc3RtXzEvUGFydGl0aW9uZWRDYWxsL3doaWxl"}, "T": {"type": "DT_FLOAT"}, "parallel_iterations": {"i": "32"}}}, {"name": "StatefulPartitionedCall/sequential/lstm_1/PartitionedCall/while/enter/_120", "op": "Enter", "input": ["StatefulPartitionedCall/sequential/lstm_1/Read_1/ReadVariableOp"], "attr": {"is_constant": {"b": false}, "frame_name": {"s": "U3RhdGVmdWxQYXJ0aXRpb25lZENhbGwvc2VxdWVudGlhbC9sc3RtXzEvUGFydGl0aW9uZWRDYWxsL3doaWxl"}, "T": {"type": "DT_FLOAT"}, "parallel_iterations": {"i": "32"}}}, {"name": "StatefulPartitionedCall/sequential/lstm_1/PartitionedCall/while/enter/_121", "op": "Enter", "input": ["StatefulPartitionedCall/sequential/lstm_1/Read_2/ReadVariableOp"], "attr": {"is_constant": {"b": false}, "frame_name": {"s": "U3RhdGVmdWxQYXJ0aXRpb25lZENhbGwvc2VxdWVudGlhbC9sc3RtXzEvUGFydGl0aW9uZWRDYWxsL3doaWxl"}, "T": {"type": "DT_FLOAT"}, "parallel_iterations": {"i": "32"}}}, {"name": "StatefulPartitionedCall/sequential/lstm_1/PartitionedCall/while/enter/_113", "op": "Enter", "input": ["StatefulPartitionedCall/sequential/lstm_1/PartitionedCall/time"], "attr": {"is_constant": {"b": false}, "frame_name": {"s": "U3RhdGVmdWxQYXJ0aXRpb25lZENhbGwvc2VxdWVudGlhbC9sc3RtXzEvUGFydGl0aW9uZWRDYWxsL3doaWxl"}, "T": {"type": "DT_INT32"}, "parallel_iterations": {"i": "32"}}}, {"name": "StatefulPartitionedCall/sequential/lstm/PartitionedCall/while/enter/_59", "op": "Enter", "input": ["StatefulPartitionedCall/sequential/lstm/Read/ReadVariableOp"], "attr": {"is_constant": {"b": false}, "frame_name": {"s": "U3RhdGVmdWxQYXJ0aXRpb25lZENhbGwvc2VxdWVudGlhbC9sc3RtL1BhcnRpdGlvbmVkQ2FsbC93aGlsZQ=="}, "T": {"type": "DT_FLOAT"}, "parallel_iterations": {"i": "32"}}}, {"name": "StatefulPartitionedCall/sequential/lstm/PartitionedCall/while/enter/_60", "op": "Enter", "input": ["StatefulPartitionedCall/sequential/lstm/Read_1/ReadVariableOp"], "attr": {"is_constant": {"b": false}, "frame_name": {"s": "U3RhdGVmdWxQYXJ0aXRpb25lZENhbGwvc2VxdWVudGlhbC9sc3RtL1BhcnRpdGlvbmVkQ2FsbC93aGlsZQ=="}, "T": {"type": "DT_FLOAT"}, "parallel_iterations": {"i": "32"}}}, {"name": "StatefulPartitionedCall/sequential/lstm/PartitionedCall/while/enter/_61", "op": "Enter", "input": ["StatefulPartitionedCall/sequential/lstm/Read_2/ReadVariableOp"], "attr": {"is_constant": {"b": false}, "frame_name": {"s": "U3RhdGVmdWxQYXJ0aXRpb25lZENhbGwvc2VxdWVudGlhbC9sc3RtL1BhcnRpdGlvbmVkQ2FsbC93aGlsZQ=="}, "T": {"type": "DT_FLOAT"}, "parallel_iterations": {"i": "32"}}}, {"name": "StatefulPartitionedCall/sequential/lstm/PartitionedCall/while/enter/_53", "op": "Enter", "input": ["StatefulPartitionedCall/sequential/lstm/PartitionedCall/time"], "attr": {"is_constant": {"b": false}, "frame_name": {"s": "U3RhdGVmdWxQYXJ0aXRpb25lZENhbGwvc2VxdWVudGlhbC9sc3RtL1BhcnRpdGlvbmVkQ2FsbC93aGlsZQ=="}, "T": {"type": "DT_INT32"}, "parallel_iterations": {"i": "32"}}}, {"name": "StatefulPartitionedCall/sequential/lstm/PartitionedCall/while/enter/_51", "op": "Enter", "input": ["StatefulPartitionedCall/sequential/lstm/PartitionedCall/while/loop_counter"], "attr": {"is_constant": {"b": false}, "frame_name": {"s": "U3RhdGVmdWxQYXJ0aXRpb25lZENhbGwvc2VxdWVudGlhbC9sc3RtL1BhcnRpdGlvbmVkQ2FsbC93aGlsZQ=="}, "T": {"type": "DT_INT32"}, "parallel_iterations": {"i": "32"}}}, {"name": "StatefulPartitionedCall/sequential/lstm_1/PartitionedCall/while/enter/_111", "op": "Enter", "input": ["StatefulPartitionedCall/sequential/lstm_1/PartitionedCall/while/loop_counter"], "attr": {"is_constant": {"b": false}, "frame_name": {"s": "U3RhdGVmdWxQYXJ0aXRpb25lZENhbGwvc2VxdWVudGlhbC9sc3RtXzEvUGFydGl0aW9uZWRDYWxsL3doaWxl"}, "T": {"type": "DT_INT32"}, "parallel_iterations": {"i": "32"}}}, {"name": "StatefulPartitionedCall/sequential/lstm/Shape", "op": "Shape", "input": ["input_1"], "attr": {"T": {"type": "DT_FLOAT"}, "out_type": {"type": "DT_INT32"}}, "experimentalType": {"typeId": "TFT_PRODUCT", "args": [{"typeId": "TFT_SHAPE_TENSOR", "args": [{"typeId": "TFT_INT32"}]}]}}, {"name": "StatefulPartitionedCall/sequential/lstm/ones_like/Shape", "op": "Shape", "input": ["input_1"], "attr": {"T": {"type": "DT_FLOAT"}, "out_type": {"type": "DT_INT32"}}, "experimentalType": {"typeId": "TFT_PRODUCT", "args": [{"typeId": "TFT_SHAPE_TENSOR", "args": [{"typeId": "TFT_INT32"}]}]}}, {"name": "StatefulPartitionedCall/sequential/lstm_1/PartitionedCall/while/enter/_114", "op": "Enter", "input": ["StatefulPartitionedCall/sequential/lstm_1/PartitionedCall/TensorArrayV2_1"], "attr": {"is_constant": {"b": false}, "frame_name": {"s": "U3RhdGVmdWxQYXJ0aXRpb25lZENhbGwvc2VxdWVudGlhbC9sc3RtXzEvUGFydGl0aW9uZWRDYWxsL3doaWxl"}, "T": {"type": "DT_VARIANT"}, "parallel_iterations": {"i": "32"}}}, {"name": "StatefulPartitionedCall/sequential/lstm_1/PartitionedCall/while/merge/_130", "op": "Merge", "input": ["StatefulPartitionedCall/sequential/lstm_1/PartitionedCall/while/enter/_119", "StatefulPartitionedCall/sequential/lstm_1/PartitionedCall/while/next_iteration/_166"], "attr": {"N": {"i": "2"}, "T": {"type": "DT_FLOAT"}}}, {"name": "StatefulPartitionedCall/sequential/lstm_1/PartitionedCall/while/merge/_131", "op": "Merge", "input": ["StatefulPartitionedCall/sequential/lstm_1/PartitionedCall/while/enter/_120", "StatefulPartitionedCall/sequential/lstm_1/PartitionedCall/while/next_iteration/_167"], "attr": {"N": {"i": "2"}, "T": {"type": "DT_FLOAT"}}}, {"name": "StatefulPartitionedCall/sequential/lstm_1/PartitionedCall/while/merge/_132", "op": "Merge", "input": ["StatefulPartitionedCall/sequential/lstm_1/PartitionedCall/while/enter/_121", "StatefulPartitionedCall/sequential/lstm_1/PartitionedCall/while/next_iteration/_168"], "attr": {"N": {"i": "2"}, "T": {"type": "DT_FLOAT"}}}, {"name": "StatefulPartitionedCall/sequential/lstm_1/PartitionedCall/while/merge/_124", "op": "Merge", "input": ["StatefulPartitionedCall/sequential/lstm_1/PartitionedCall/while/enter/_113", "StatefulPartitionedCall/sequential/lstm_1/PartitionedCall/while/next_iteration/_160"], "attr": {"N": {"i": "2"}, "T": {"type": "DT_INT32"}}}, {"name": "StatefulPartitionedCall/sequential/lstm/PartitionedCall/while/merge/_70", "op": "Merge", "input": ["StatefulPartitionedCall/sequential/lstm/PartitionedCall/while/enter/_59", "StatefulPartitionedCall/sequential/lstm/PartitionedCall/while/next_iteration/_106"], "attr": {"N": {"i": "2"}, "T": {"type": "DT_FLOAT"}}}, {"name": "StatefulPartitionedCall/sequential/lstm/PartitionedCall/while/merge/_71", "op": "Merge", "input": ["StatefulPartitionedCall/sequential/lstm/PartitionedCall/while/enter/_60", "StatefulPartitionedCall/sequential/lstm/PartitionedCall/while/next_iteration/_107"], "attr": {"N": {"i": "2"}, "T": {"type": "DT_FLOAT"}}}, {"name": "StatefulPartitionedCall/sequential/lstm/PartitionedCall/while/merge/_72", "op": "Merge", "input": ["StatefulPartitionedCall/sequential/lstm/PartitionedCall/while/enter/_61", "StatefulPartitionedCall/sequential/lstm/PartitionedCall/while/next_iteration/_108"], "attr": {"N": {"i": "2"}, "T": {"type": "DT_FLOAT"}}}, {"name": "StatefulPartitionedCall/sequential/lstm/PartitionedCall/while/merge/_64", "op": "Merge", "input": ["StatefulPartitionedCall/sequential/lstm/PartitionedCall/while/enter/_53", "StatefulPartitionedCall/sequential/lstm/PartitionedCall/while/next_iteration/_100"], "attr": {"N": {"i": "2"}, "T": {"type": "DT_INT32"}}}, {"name": "StatefulPartitionedCall/sequential/lstm/PartitionedCall/while/merge/_62", "op": "Merge", "input": ["StatefulPartitionedCall/sequential/lstm/PartitionedCall/while/enter/_51", "StatefulPartitionedCall/sequential/lstm/PartitionedCall/while/next_iteration/_98"], "attr": {"N": {"i": "2"}, "T": {"type": "DT_INT32"}}}, {"name": "StatefulPartitionedCall/sequential/lstm_1/PartitionedCall/while/merge/_122", "op": "Merge", "input": ["StatefulPartitionedCall/sequential/lstm_1/PartitionedCall/while/enter/_111", "StatefulPartitionedCall/sequential/lstm_1/PartitionedCall/while/next_iteration/_158"], "attr": {"N": {"i": "2"}, "_has_manual_control_dependencies": {"b": true}, "T": {"type": "DT_INT32"}}}, {"name": "StatefulPartitionedCall/sequential/lstm/strided_slice", "op": "StridedSlice", "input": ["StatefulPartitionedCall/sequential/lstm/Shape", "StatefulPartitionedCall/sequential/lstm/strided_slice/stack", "StatefulPartitionedCall/sequential/lstm/strided_slice/stack_1", "StatefulPartitionedCall/sequential/lstm/strided_slice/stack_2"], "attr": {"shrink_axis_mask": {"i": "1"}, "Index": {"type": "DT_INT32"}, "new_axis_mask": {"i": "0"}, "begin_mask": {"i": "0"}, "T": {"type": "DT_INT32"}, "end_mask": {"i": "0"}, "ellipsis_mask": {"i": "0"}}}, {"name": "StatefulPartitionedCall/sequential/lstm/ones_like", "op": "Fill", "input": ["StatefulPartitionedCall/sequential/lstm/ones_like/Shape", "StatefulPartitionedCall/sequential/lstm/ones_like/Const"], "attr": {"T": {"type": "DT_FLOAT"}, "index_type": {"type": "DT_INT32"}}}, {"name": "StatefulPartitionedCall/sequential/lstm_1/PartitionedCall/while/merge/_125", "op": "Merge", "input": ["StatefulPartitionedCall/sequential/lstm_1/PartitionedCall/while/enter/_114", "StatefulPartitionedCall/sequential/lstm_1/PartitionedCall/while/next_iteration/_161"], "attr": {"N": {"i": "2"}, "T": {"type": "DT_VARIANT"}}}, {"name": "StatefulPartitionedCall/sequential/lstm/zeros_1/packed", "op": "Pack", "input": ["StatefulPartitionedCall/sequential/lstm/strided_slice", "StatefulPartitionedCall/sequential/lstm/zeros_1/packed/1"], "attr": {"N": {"i": "2"}, "axis": {"i": "0"}, "T": {"type": "DT_INT32"}}}, {"name": "StatefulPartitionedCall/sequential/lstm/zeros/packed", "op": "Pack", "input": ["StatefulPartitionedCall/sequential/lstm/strided_slice", "StatefulPartitionedCall/sequential/lstm/zeros/packed/1"], "attr": {"N": {"i": "2"}, "axis": {"i": "0"}, "T": {"type": "DT_INT32"}}}, {"name": "StatefulPartitionedCall/sequential/lstm/mul", "op": "Mul", "input": ["input_1", "StatefulPartitionedCall/sequential/lstm/ones_like"], "attr": {"T": {"type": "DT_FLOAT"}}}, {"name": "StatefulPartitionedCall/sequential/lstm/zeros_1", "op": "Fill", "input": ["StatefulPartitionedCall/sequential/lstm/zeros_1/packed", "StatefulPartitionedCall/sequential/lstm/zeros_1/Const"], "attr": {"T": {"type": "DT_FLOAT"}, "index_type": {"type": "DT_INT32"}}}, {"name": "StatefulPartitionedCall/sequential/lstm/zeros", "op": "Fill", "input": ["StatefulPartitionedCall/sequential/lstm/zeros/packed", "StatefulPartitionedCall/sequential/lstm/zeros/Const"], "attr": {"T": {"type": "DT_FLOAT"}, "index_type": {"type": "DT_INT32"}}}, {"name": "StatefulPartitionedCall/sequential/lstm/PartitionedCall/transpose", "op": "Transpose", "input": ["StatefulPartitionedCall/sequential/lstm/mul", "StatefulPartitionedCall/sequential/lstm/PartitionedCall/transpose/perm"], "attr": {"Tperm": {"type": "DT_INT32"}, "T": {"type": "DT_FLOAT"}}}, {"name": "StatefulPartitionedCall/sequential/lstm/PartitionedCall/while/enter/_56", "op": "Enter", "input": ["StatefulPartitionedCall/sequential/lstm/zeros_1"], "attr": {"is_constant": {"b": false}, "frame_name": {"s": "U3RhdGVmdWxQYXJ0aXRpb25lZENhbGwvc2VxdWVudGlhbC9sc3RtL1BhcnRpdGlvbmVkQ2FsbC93aGlsZQ=="}, "T": {"type": "DT_FLOAT"}, "parallel_iterations": {"i": "32"}}}, {"name": "StatefulPartitionedCall/sequential/lstm/PartitionedCall/while/enter/_55", "op": "Enter", "input": ["StatefulPartitionedCall/sequential/lstm/zeros"], "attr": {"is_constant": {"b": false}, "frame_name": {"s": "U3RhdGVmdWxQYXJ0aXRpb25lZENhbGwvc2VxdWVudGlhbC9sc3RtL1BhcnRpdGlvbmVkQ2FsbC93aGlsZQ=="}, "T": {"type": "DT_FLOAT"}, "parallel_iterations": {"i": "32"}}}, {"name": "StatefulPartitionedCall/sequential/lstm/PartitionedCall/TensorArrayUnstack/TensorListFromTensor", "op": "TensorListFromTensor", "input": ["StatefulPartitionedCall/sequential/lstm/PartitionedCall/transpose", "StatefulPartitionedCall/sequential/lstm/PartitionedCall/TensorArrayUnstack/TensorListFromTensor/element_shape"], "attr": {"shape_type": {"type": "DT_INT32"}, "element_dtype": {"type": "DT_FLOAT"}}, "experimentalType": {"typeId": "TFT_PRODUCT", "args": [{"typeId": "TFT_ARRAY", "args": [{"typeId": "TFT_TENSOR", "args": [{"typeId": "TFT_FLOAT"}]}]}]}}, {"name": "StatefulPartitionedCall/sequential/lstm/PartitionedCall/Shape", "op": "Shape", "input": ["StatefulPartitionedCall/sequential/lstm/PartitionedCall/transpose"], "attr": {"T": {"type": "DT_FLOAT"}, "out_type": {"type": "DT_INT32"}}, "experimentalType": {"typeId": "TFT_PRODUCT", "args": [{"typeId": "TFT_SHAPE_TENSOR", "args": [{"typeId": "TFT_INT32"}]}]}}, {"name": "StatefulPartitionedCall/sequential/lstm/PartitionedCall/while/merge/_67", "op": "Merge", "input": ["StatefulPartitionedCall/sequential/lstm/PartitionedCall/while/enter/_56", "StatefulPartitionedCall/sequential/lstm/PartitionedCall/while/next_iteration/_103"], "attr": {"N": {"i": "2"}, "T": {"type": "DT_FLOAT"}}}, {"name": "StatefulPartitionedCall/sequential/lstm/PartitionedCall/while/merge/_66", "op": "Merge", "input": ["StatefulPartitionedCall/sequential/lstm/PartitionedCall/while/enter/_55", "StatefulPartitionedCall/sequential/lstm/PartitionedCall/while/next_iteration/_102"], "attr": {"N": {"i": "2"}, "T": {"type": "DT_FLOAT"}}}, {"name": "StatefulPartitionedCall/sequential/lstm/PartitionedCall/while/enter/_58", "op": "Enter", "input": ["StatefulPartitionedCall/sequential/lstm/PartitionedCall/TensorArrayUnstack/TensorListFromTensor"], "attr": {"is_constant": {"b": false}, "frame_name": {"s": "U3RhdGVmdWxQYXJ0aXRpb25lZENhbGwvc2VxdWVudGlhbC9sc3RtL1BhcnRpdGlvbmVkQ2FsbC93aGlsZQ=="}, "T": {"type": "DT_VARIANT"}, "parallel_iterations": {"i": "32"}}}, {"name": "StatefulPartitionedCall/sequential/lstm/PartitionedCall/strided_slice", "op": "StridedSlice", "input": ["StatefulPartitionedCall/sequential/lstm/PartitionedCall/Shape", "StatefulPartitionedCall/sequential/lstm/PartitionedCall/strided_slice/stack", "StatefulPartitionedCall/sequential/lstm/PartitionedCall/strided_slice/stack_1", "StatefulPartitionedCall/sequential/lstm/PartitionedCall/strided_slice/stack_2"], "attr": {"shrink_axis_mask": {"i": "1"}, "Index": {"type": "DT_INT32"}, "new_axis_mask": {"i": "0"}, "begin_mask": {"i": "0"}, "end_mask": {"i": "0"}, "T": {"type": "DT_INT32"}, "ellipsis_mask": {"i": "0"}}}, {"name": "StatefulPartitionedCall/sequential/lstm/PartitionedCall/while/merge/_69", "op": "Merge", "input": ["StatefulPartitionedCall/sequential/lstm/PartitionedCall/while/enter/_58", "StatefulPartitionedCall/sequential/lstm/PartitionedCall/while/next_iteration/_105"], "attr": {"N": {"i": "2"}, "T": {"type": "DT_VARIANT"}}}, {"name": "StatefulPartitionedCall/sequential/lstm/PartitionedCall/TensorArrayV2_1", "op": "TensorListReserve", "input": ["StatefulPartitionedCall/sequential/lstm/PartitionedCall/TensorArrayV2_1/element_shape", "StatefulPartitionedCall/sequential/lstm/PartitionedCall/strided_slice"], "attr": {"shape_type": {"type": "DT_INT32"}, "element_dtype": {"type": "DT_FLOAT"}}, "experimentalType": {"typeId": "TFT_PRODUCT", "args": [{"typeId": "TFT_ARRAY", "args": [{"typeId": "TFT_TENSOR", "args": [{"typeId": "TFT_FLOAT"}]}]}]}}, {"name": "StatefulPartitionedCall/sequential/lstm/PartitionedCall/while/enter/_57", "op": "Enter", "input": ["StatefulPartitionedCall/sequential/lstm/PartitionedCall/strided_slice"], "attr": {"is_constant": {"b": false}, "frame_name": {"s": "U3RhdGVmdWxQYXJ0aXRpb25lZENhbGwvc2VxdWVudGlhbC9sc3RtL1BhcnRpdGlvbmVkQ2FsbC93aGlsZQ=="}, "T": {"type": "DT_INT32"}, "parallel_iterations": {"i": "32"}}}, {"name": "StatefulPartitionedCall/sequential/lstm/PartitionedCall/while/enter/_54", "op": "Enter", "input": ["StatefulPartitionedCall/sequential/lstm/PartitionedCall/TensorArrayV2_1"], "attr": {"is_constant": {"b": false}, "frame_name": {"s": "U3RhdGVmdWxQYXJ0aXRpb25lZENhbGwvc2VxdWVudGlhbC9sc3RtL1BhcnRpdGlvbmVkQ2FsbC93aGlsZQ=="}, "T": {"type": "DT_VARIANT"}, "parallel_iterations": {"i": "32"}}}, {"name": "StatefulPartitionedCall/sequential/lstm/PartitionedCall/while/merge/_68", "op": "Merge", "input": ["StatefulPartitionedCall/sequential/lstm/PartitionedCall/while/enter/_57", "StatefulPartitionedCall/sequential/lstm/PartitionedCall/while/next_iteration/_104"], "attr": {"N": {"i": "2"}, "T": {"type": "DT_INT32"}}}, {"name": "StatefulPartitionedCall/sequential/lstm/PartitionedCall/while/merge/_65", "op": "Merge", "input": ["StatefulPartitionedCall/sequential/lstm/PartitionedCall/while/enter/_54", "StatefulPartitionedCall/sequential/lstm/PartitionedCall/while/next_iteration/_101"], "attr": {"N": {"i": "2"}, "T": {"type": "DT_VARIANT"}}}, {"name": "StatefulPartitionedCall/sequential/lstm/PartitionedCall/while/cond/_49/while/Less", "op": "Less", "input": ["StatefulPartitionedCall/sequential/lstm/PartitionedCall/while/merge/_64", "StatefulPartitionedCall/sequential/lstm/PartitionedCall/while/merge/_68", "^StatefulPartitionedCall/sequential/lstm/PartitionedCall/while/merge/_62"], "attr": {"T": {"type": "DT_INT32"}}}, {"name": "StatefulPartitionedCall/sequential/lstm/PartitionedCall/while/LoopCond/_73", "op": "LoopCond", "input": ["StatefulPartitionedCall/sequential/lstm/PartitionedCall/while/cond/_49/while/Less"]}, {"name": "StatefulPartitionedCall/sequential/lstm/PartitionedCall/while/Func/StatefulPartitionedCall/sequential/lstm/PartitionedCall/input/_29_switch/_79", "op": "Switch", "input": ["StatefulPartitionedCall/sequential/lstm/PartitionedCall/while/merge/_67", "StatefulPartitionedCall/sequential/lstm/PartitionedCall/while/LoopCond/_73"], "attr": {"T": {"type": "DT_FLOAT"}}}, {"name": "StatefulPartitionedCall/sequential/lstm/PartitionedCall/while/StatefulPartitionedCall/sequential/lstm/PartitionedCall/TensorArrayUnstack/TensorListFromTensor_switch/_81", "op": "Switch", "input": ["StatefulPartitionedCall/sequential/lstm/PartitionedCall/while/merge/_69", "StatefulPartitionedCall/sequential/lstm/PartitionedCall/while/LoopCond/_73"], "attr": {"T": {"type": "DT_VARIANT"}}}, {"name": "StatefulPartitionedCall/sequential/lstm/PartitionedCall/while/Func/StatefulPartitionedCall/sequential/lstm/PartitionedCall/input/_30_switch/_82", "op": "Switch", "input": ["StatefulPartitionedCall/sequential/lstm/PartitionedCall/while/merge/_70", "StatefulPartitionedCall/sequential/lstm/PartitionedCall/while/LoopCond/_73"], "attr": {"T": {"type": "DT_FLOAT"}}}, {"name": "StatefulPartitionedCall/sequential/lstm/PartitionedCall/while/Func/StatefulPartitionedCall/sequential/lstm/PartitionedCall/input/_28_switch/_78", "op": "Switch", "input": ["StatefulPartitionedCall/sequential/lstm/PartitionedCall/while/merge/_66", "StatefulPartitionedCall/sequential/lstm/PartitionedCall/while/LoopCond/_73"], "attr": {"T": {"type": "DT_FLOAT"}}}, {"name": "StatefulPartitionedCall/sequential/lstm/PartitionedCall/while/Func/StatefulPartitionedCall/sequential/lstm/PartitionedCall/input/_31_switch/_83", "op": "Switch", "input": ["StatefulPartitionedCall/sequential/lstm/PartitionedCall/while/merge/_71", "StatefulPartitionedCall/sequential/lstm/PartitionedCall/while/LoopCond/_73"], "attr": {"T": {"type": "DT_FLOAT"}}}, {"name": "StatefulPartitionedCall/sequential/lstm/PartitionedCall/while/Func/StatefulPartitionedCall/sequential/lstm/PartitionedCall/input/_32_switch/_84", "op": "Switch", "input": ["StatefulPartitionedCall/sequential/lstm/PartitionedCall/while/merge/_72", "StatefulPartitionedCall/sequential/lstm/PartitionedCall/while/LoopCond/_73"], "attr": {"T": {"type": "DT_FLOAT"}}}, {"name": "StatefulPartitionedCall/sequential/lstm/PartitionedCall/while/StatefulPartitionedCall/sequential/lstm/PartitionedCall/time_switch/_76", "op": "Switch", "input": ["StatefulPartitionedCall/sequential/lstm/PartitionedCall/while/merge/_64", "StatefulPartitionedCall/sequential/lstm/PartitionedCall/while/LoopCond/_73"], "attr": {"T": {"type": "DT_INT32"}}}, {"name": "StatefulPartitionedCall/sequential/lstm/PartitionedCall/while/StatefulPartitionedCall/sequential/lstm/PartitionedCall/while/loop_counter_switch/_74", "op": "Switch", "input": ["StatefulPartitionedCall/sequential/lstm/PartitionedCall/while/merge/_62", "StatefulPartitionedCall/sequential/lstm/PartitionedCall/while/LoopCond/_73"], "attr": {"T": {"type": "DT_INT32"}}}, {"name": "StatefulPartitionedCall/sequential/lstm/PartitionedCall/while/StatefulPartitionedCall/sequential/lstm/PartitionedCall/TensorArrayV2_1_switch/_77", "op": "Switch", "input": ["StatefulPartitionedCall/sequential/lstm/PartitionedCall/while/merge/_65", "StatefulPartitionedCall/sequential/lstm/PartitionedCall/while/LoopCond/_73"], "attr": {"T": {"type": "DT_VARIANT"}}}, {"name": "StatefulPartitionedCall/sequential/lstm/PartitionedCall/while/StatefulPartitionedCall/sequential/lstm/PartitionedCall/strided_slice_switch/_80", "op": "Switch", "input": ["StatefulPartitionedCall/sequential/lstm/PartitionedCall/while/merge/_68", "StatefulPartitionedCall/sequential/lstm/PartitionedCall/while/LoopCond/_73"], "attr": {"T": {"type": "DT_INT32"}}}, {"name": "StatefulPartitionedCall/sequential/lstm/PartitionedCall/while/loop_body_control/_85", "op": "Identity", "input": ["StatefulPartitionedCall/sequential/lstm/PartitionedCall/while/StatefulPartitionedCall/sequential/lstm/PartitionedCall/while/loop_counter_switch/_74:1"], "attr": {"_has_manual_control_dependencies": {"b": true}, "T": {"type": "DT_INT32"}}}, {"name": "StatefulPartitionedCall/sequential/lstm/PartitionedCall/while/exit/_89", "op": "Exit", "input": ["StatefulPartitionedCall/sequential/lstm/PartitionedCall/while/StatefulPartitionedCall/sequential/lstm/PartitionedCall/TensorArrayV2_1_switch/_77"], "attr": {"T": {"type": "DT_VARIANT"}}}, {"name": "StatefulPartitionedCall/sequential/lstm/PartitionedCall/while/body/_50/while/split/split_dim", "op": "Const", "input": ["^StatefulPartitionedCall/sequential/lstm/PartitionedCall/while/loop_body_control/_85"], "attr": {"value": {"tensor": {"dtype": "DT_INT32", "tensorShape": {}}}, "dtype": {"type": "DT_INT32"}}}, {"name": "StatefulPartitionedCall/sequential/lstm/PartitionedCall/while/next_iteration/_105", "op": "NextIteration", "input": ["StatefulPartitionedCall/sequential/lstm/PartitionedCall/while/StatefulPartitionedCall/sequential/lstm/PartitionedCall/TensorArrayUnstack/TensorListFromTensor_switch/_81:1", "^StatefulPartitionedCall/sequential/lstm/PartitionedCall/while/loop_body_control/_85"], "attr": {"T": {"type": "DT_VARIANT"}}}, {"name": "StatefulPartitionedCall/sequential/lstm/PartitionedCall/while/body/_50/while/TensorArrayV2Read/TensorListGetItem/element_shape", "op": "Const", "input": ["^StatefulPartitionedCall/sequential/lstm/PartitionedCall/while/loop_body_control/_85"], "attr": {"value": {"tensor": {"dtype": "DT_INT32", "tensorShape": {"dim": [{"size": "2"}]}}}, "dtype": {"type": "DT_INT32"}}}, {"name": "StatefulPartitionedCall/sequential/lstm/PartitionedCall/while/next_iteration/_106", "op": "NextIteration", "input": ["StatefulPartitionedCall/sequential/lstm/PartitionedCall/while/Func/StatefulPartitionedCall/sequential/lstm/PartitionedCall/input/_30_switch/_82:1", "^StatefulPartitionedCall/sequential/lstm/PartitionedCall/while/loop_body_control/_85"], "attr": {"T": {"type": "DT_FLOAT"}}}, {"name": "StatefulPartitionedCall/sequential/lstm/PartitionedCall/while/next_iteration/_107", "op": "NextIteration", "input": ["StatefulPartitionedCall/sequential/lstm/PartitionedCall/while/Func/StatefulPartitionedCall/sequential/lstm/PartitionedCall/input/_31_switch/_83:1", "^StatefulPartitionedCall/sequential/lstm/PartitionedCall/while/loop_body_control/_85"], "attr": {"T": {"type": "DT_FLOAT"}}}, {"name": "StatefulPartitionedCall/sequential/lstm/PartitionedCall/while/body/_50/while/MatMul_1", "op": "MatMul", "input": ["StatefulPartitionedCall/sequential/lstm/PartitionedCall/while/Func/StatefulPartitionedCall/sequential/lstm/PartitionedCall/input/_28_switch/_78:1", "StatefulPartitionedCall/sequential/lstm/PartitionedCall/while/Func/StatefulPartitionedCall/sequential/lstm/PartitionedCall/input/_31_switch/_83:1", "^StatefulPartitionedCall/sequential/lstm/PartitionedCall/while/loop_body_control/_85"], "device": "/device:CPU:0", "attr": {"transpose_a": {"b": false}, "T": {"type": "DT_FLOAT"}, "transpose_b": {"b": false}}}, {"name": "StatefulPartitionedCall/sequential/lstm/PartitionedCall/while/next_iteration/_108", "op": "NextIteration", "input": ["StatefulPartitionedCall/sequential/lstm/PartitionedCall/while/Func/StatefulPartitionedCall/sequential/lstm/PartitionedCall/input/_32_switch/_84:1", "^StatefulPartitionedCall/sequential/lstm/PartitionedCall/while/loop_body_control/_85"], "attr": {"T": {"type": "DT_FLOAT"}}}, {"name": "Func/StatefulPartitionedCall/sequential/lstm/PartitionedCall/while/body/_50/input/_185", "op": "Identity", "input": ["StatefulPartitionedCall/sequential/lstm/PartitionedCall/while/StatefulPartitionedCall/sequential/lstm/PartitionedCall/time_switch/_76:1", "^StatefulPartitionedCall/sequential/lstm/PartitionedCall/while/loop_body_control/_85"], "attr": {"T": {"type": "DT_INT32"}}}, {"name": "StatefulPartitionedCall/sequential/lstm/PartitionedCall/while/body/_50/while/add_2/y", "op": "Const", "input": ["^StatefulPartitionedCall/sequential/lstm/PartitionedCall/while/loop_body_control/_85"], "attr": {"value": {"tensor": {"dtype": "DT_INT32", "tensorShape": {}}}, "dtype": {"type": "DT_INT32"}}}, {"name": "StatefulPartitionedCall/sequential/lstm/PartitionedCall/while/body/_50/while/add_3/y", "op": "Const", "input": ["^StatefulPartitionedCall/sequential/lstm/PartitionedCall/while/loop_body_control/_85"], "attr": {"value": {"tensor": {"dtype": "DT_INT32", "tensorShape": {}}}, "dtype": {"type": "DT_INT32"}}}, {"name": "StatefulPartitionedCall/sequential/lstm/PartitionedCall/while/next_iteration/_104", "op": "NextIteration", "input": ["StatefulPartitionedCall/sequential/lstm/PartitionedCall/while/StatefulPartitionedCall/sequential/lstm/PartitionedCall/strided_slice_switch/_80:1", "^StatefulPartitionedCall/sequential/lstm/PartitionedCall/while/loop_body_control/_85"], "attr": {"T": {"type": "DT_INT32"}}}, {"name": "StatefulPartitionedCall/sequential/lstm/PartitionedCall/TensorArrayV2Stack/TensorListStack", "op": "TensorListStack", "input": ["StatefulPartitionedCall/sequential/lstm/PartitionedCall/while/exit/_89", "StatefulPartitionedCall/sequential/lstm/PartitionedCall/TensorArrayV2Stack/TensorListStack/element_shape"], "attr": {"num_elements": {"i": "-1"}, "element_dtype": {"type": "DT_FLOAT"}}}, {"name": "StatefulPartitionedCall/sequential/lstm/PartitionedCall/while/body/_50/while/TensorArrayV2Read/TensorListGetItem", "op": "TensorListGetItem", "input": ["StatefulPartitionedCall/sequential/lstm/PartitionedCall/while/StatefulPartitionedCall/sequential/lstm/PartitionedCall/TensorArrayUnstack/TensorListFromTensor_switch/_81:1", "Func/StatefulPartitionedCall/sequential/lstm/PartitionedCall/while/body/_50/input/_185", "StatefulPartitionedCall/sequential/lstm/PartitionedCall/while/body/_50/while/TensorArrayV2Read/TensorListGetItem/element_shape"], "attr": {"element_dtype": {"type": "DT_FLOAT"}}}, {"name": "StatefulPartitionedCall/sequential/lstm/PartitionedCall/while/body/_50/while/add_2", "op": "AddV2", "input": ["Func/StatefulPartitionedCall/sequential/lstm/PartitionedCall/while/body/_50/input/_185", "StatefulPartitionedCall/sequential/lstm/PartitionedCall/while/body/_50/while/add_2/y"], "attr": {"T": {"type": "DT_INT32"}}}, {"name": "StatefulPartitionedCall/sequential/lstm/PartitionedCall/while/body/_50/while/add_3", "op": "AddV2", "input": ["StatefulPartitionedCall/sequential/lstm/PartitionedCall/while/StatefulPartitionedCall/sequential/lstm/PartitionedCall/while/loop_counter_switch/_74:1", "StatefulPartitionedCall/sequential/lstm/PartitionedCall/while/body/_50/while/add_3/y"], "attr": {"T": {"type": "DT_INT32"}}}, {"name": "StatefulPartitionedCall/sequential/lstm/PartitionedCall/transpose_1", "op": "Transpose", "input": ["StatefulPartitionedCall/sequential/lstm/PartitionedCall/TensorArrayV2Stack/TensorListStack", "StatefulPartitionedCall/sequential/lstm/PartitionedCall/transpose_1/perm"], "attr": {"Tperm": {"type": "DT_INT32"}, "T": {"type": "DT_FLOAT"}}}, {"name": "StatefulPartitionedCall/sequential/lstm/PartitionedCall/while/body/_50/while/add", "op": "_FusedMatMul", "input": ["StatefulPartitionedCall/sequential/lstm/PartitionedCall/while/body/_50/while/TensorArrayV2Read/TensorListGetItem", "StatefulPartitionedCall/sequential/lstm/PartitionedCall/while/Func/StatefulPartitionedCall/sequential/lstm/PartitionedCall/input/_30_switch/_82:1", "StatefulPartitionedCall/sequential/lstm/PartitionedCall/while/body/_50/while/MatMul_1"], "device": "/device:CPU:0", "attr": {"transpose_a": {"b": false}, "transpose_b": {"b": false}, "fused_ops": {"list": {"s": ["Qmlhc0FkZA=="]}}, "leakyrelu_alpha": {"f": 0.2}, "num_args": {"i": "1"}, "epsilon": {"f": 0.0}, "T": {"type": "DT_FLOAT"}}}, {"name": "StatefulPartitionedCall/sequential/lstm/PartitionedCall/while/next_iteration/_100", "op": "NextIteration", "input": ["StatefulPartitionedCall/sequential/lstm/PartitionedCall/while/body/_50/while/add_2", "^StatefulPartitionedCall/sequential/lstm/PartitionedCall/while/loop_body_control/_85"], "attr": {"T": {"type": "DT_INT32"}}}, {"name": "StatefulPartitionedCall/sequential/lstm/PartitionedCall/while/next_iteration/_98", "op": "NextIteration", "input": ["StatefulPartitionedCall/sequential/lstm/PartitionedCall/while/body/_50/while/add_3", "^StatefulPartitionedCall/sequential/lstm/PartitionedCall/while/loop_body_control/_85"], "attr": {"T": {"type": "DT_INT32"}}}, {"name": "StatefulPartitionedCall/sequential/batch_normalization/batchnorm/mul_1", "op": "Mul", "input": ["StatefulPartitionedCall/sequential/lstm/PartitionedCall/transpose_1", "StatefulPartitionedCall/sequential/batch_normalization/batchnorm/mul"], "attr": {"T": {"type": "DT_FLOAT"}}}, {"name": "StatefulPartitionedCall/sequential/lstm/PartitionedCall/while/body/_50/while/BiasAdd", "op": "BiasAdd", "input": ["StatefulPartitionedCall/sequential/lstm/PartitionedCall/while/body/_50/while/add", "StatefulPartitionedCall/sequential/lstm/PartitionedCall/while/Func/StatefulPartitionedCall/sequential/lstm/PartitionedCall/input/_32_switch/_84:1"], "attr": {"data_format": {"s": "TkhXQw=="}, "T": {"type": "DT_FLOAT"}}}, {"name": "StatefulPartitionedCall/sequential/batch_normalization/batchnorm/add_1", "op": "AddV2", "input": ["StatefulPartitionedCall/sequential/batch_normalization/batchnorm/mul_1", "StatefulPartitionedCall/sequential/batch_normalization/batchnorm/sub"], "attr": {"T": {"type": "DT_FLOAT"}}}, {"name": "StatefulPartitionedCall/sequential/lstm/PartitionedCall/while/body/_50/while/split", "op": "Split", "input": ["StatefulPartitionedCall/sequential/lstm/PartitionedCall/while/body/_50/while/split/split_dim", "StatefulPartitionedCall/sequential/lstm/PartitionedCall/while/body/_50/while/BiasAdd"], "attr": {"num_split": {"i": "4"}, "T": {"type": "DT_FLOAT"}}}, {"name": "StatefulPartitionedCall/sequential/lstm_1/Shape", "op": "Shape", "input": ["StatefulPartitionedCall/sequential/batch_normalization/batchnorm/add_1"], "attr": {"T": {"type": "DT_FLOAT"}, "out_type": {"type": "DT_INT32"}}, "experimentalType": {"typeId": "TFT_PRODUCT", "args": [{"typeId": "TFT_SHAPE_TENSOR", "args": [{"typeId": "TFT_INT32"}]}]}}, {"name": "StatefulPartitionedCall/sequential/lstm_1/PartitionedCall/transpose", "op": "Transpose", "input": ["StatefulPartitionedCall/sequential/batch_normalization/batchnorm/add_1", "StatefulPartitionedCall/sequential/lstm_1/PartitionedCall/transpose/perm"], "attr": {"Tperm": {"type": "DT_INT32"}, "T": {"type": "DT_FLOAT"}}}, {"name": "StatefulPartitionedCall/sequential/lstm/PartitionedCall/while/body/_50/while/Sigmoid", "op": "Sigmoid", "input": ["StatefulPartitionedCall/sequential/lstm/PartitionedCall/while/body/_50/while/split"], "attr": {"T": {"type": "DT_FLOAT"}}}, {"name": "StatefulPartitionedCall/sequential/lstm/PartitionedCall/while/body/_50/while/Sigmoid_1", "op": "Sigmoid", "input": ["StatefulPartitionedCall/sequential/lstm/PartitionedCall/while/body/_50/while/split:1"], "attr": {"T": {"type": "DT_FLOAT"}}}, {"name": "StatefulPartitionedCall/sequential/lstm/PartitionedCall/while/body/_50/while/Tanh", "op": "Tanh", "input": ["StatefulPartitionedCall/sequential/lstm/PartitionedCall/while/body/_50/while/split:2"], "attr": {"T": {"type": "DT_FLOAT"}}}, {"name": "StatefulPartitionedCall/sequential/lstm/PartitionedCall/while/body/_50/while/Sigmoid_2", "op": "Sigmoid", "input": ["StatefulPartitionedCall/sequential/lstm/PartitionedCall/while/body/_50/while/split:3"], "attr": {"T": {"type": "DT_FLOAT"}}}, {"name": "StatefulPartitionedCall/sequential/lstm_1/strided_slice", "op": "StridedSlice", "input": ["StatefulPartitionedCall/sequential/lstm_1/Shape", "StatefulPartitionedCall/sequential/lstm_1/strided_slice/stack", "StatefulPartitionedCall/sequential/lstm_1/strided_slice/stack_1", "StatefulPartitionedCall/sequential/lstm_1/strided_slice/stack_2"], "attr": {"shrink_axis_mask": {"i": "1"}, "new_axis_mask": {"i": "0"}, "Index": {"type": "DT_INT32"}, "begin_mask": {"i": "0"}, "end_mask": {"i": "0"}, "T": {"type": "DT_INT32"}, "ellipsis_mask": {"i": "0"}}}, {"name": "StatefulPartitionedCall/sequential/lstm_1/PartitionedCall/TensorArrayUnstack/TensorListFromTensor", "op": "TensorListFromTensor", "input": ["StatefulPartitionedCall/sequential/lstm_1/PartitionedCall/transpose", "StatefulPartitionedCall/sequential/lstm_1/PartitionedCall/TensorArrayUnstack/TensorListFromTensor/element_shape"], "attr": {"shape_type": {"type": "DT_INT32"}, "element_dtype": {"type": "DT_FLOAT"}}, "experimentalType": {"typeId": "TFT_PRODUCT", "args": [{"typeId": "TFT_ARRAY", "args": [{"typeId": "TFT_TENSOR", "args": [{"typeId": "TFT_FLOAT"}]}]}]}}, {"name": "StatefulPartitionedCall/sequential/lstm_1/PartitionedCall/Shape", "op": "Shape", "input": ["StatefulPartitionedCall/sequential/lstm_1/PartitionedCall/transpose"], "attr": {"T": {"type": "DT_FLOAT"}, "out_type": {"type": "DT_INT32"}}, "experimentalType": {"typeId": "TFT_PRODUCT", "args": [{"typeId": "TFT_SHAPE_TENSOR", "args": [{"typeId": "TFT_INT32"}]}]}}, {"name": "StatefulPartitionedCall/sequential/lstm/PartitionedCall/while/body/_50/while/mul", "op": "Mul", "input": ["StatefulPartitionedCall/sequential/lstm/PartitionedCall/while/body/_50/while/Sigmoid_1", "StatefulPartitionedCall/sequential/lstm/PartitionedCall/while/Func/StatefulPartitionedCall/sequential/lstm/PartitionedCall/input/_29_switch/_79:1"], "attr": {"T": {"type": "DT_FLOAT"}}}, {"name": "StatefulPartitionedCall/sequential/lstm/PartitionedCall/while/body/_50/while/mul_1", "op": "Mul", "input": ["StatefulPartitionedCall/sequential/lstm/PartitionedCall/while/body/_50/while/Sigmoid", "StatefulPartitionedCall/sequential/lstm/PartitionedCall/while/body/_50/while/Tanh"], "attr": {"T": {"type": "DT_FLOAT"}}}, {"name": "StatefulPartitionedCall/sequential/lstm_1/zeros_1/packed", "op": "Pack", "input": ["StatefulPartitionedCall/sequential/lstm_1/strided_slice", "StatefulPartitionedCall/sequential/lstm_1/zeros_1/packed/1"], "attr": {"N": {"i": "2"}, "axis": {"i": "0"}, "T": {"type": "DT_INT32"}}}, {"name": "StatefulPartitionedCall/sequential/lstm_1/zeros/packed", "op": "Pack", "input": ["StatefulPartitionedCall/sequential/lstm_1/strided_slice", "StatefulPartitionedCall/sequential/lstm_1/zeros/packed/1"], "attr": {"N": {"i": "2"}, "axis": {"i": "0"}, "T": {"type": "DT_INT32"}}}, {"name": "StatefulPartitionedCall/sequential/lstm_1/PartitionedCall/while/enter/_118", "op": "Enter", "input": ["StatefulPartitionedCall/sequential/lstm_1/PartitionedCall/TensorArrayUnstack/TensorListFromTensor"], "attr": {"is_constant": {"b": false}, "frame_name": {"s": "U3RhdGVmdWxQYXJ0aXRpb25lZENhbGwvc2VxdWVudGlhbC9sc3RtXzEvUGFydGl0aW9uZWRDYWxsL3doaWxl"}, "T": {"type": "DT_VARIANT"}, "parallel_iterations": {"i": "32"}}}, {"name": "StatefulPartitionedCall/sequential/lstm_1/PartitionedCall/strided_slice", "op": "StridedSlice", "input": ["StatefulPartitionedCall/sequential/lstm_1/PartitionedCall/Shape", "StatefulPartitionedCall/sequential/lstm_1/PartitionedCall/strided_slice/stack", "StatefulPartitionedCall/sequential/lstm_1/PartitionedCall/strided_slice/stack_1", "StatefulPartitionedCall/sequential/lstm_1/PartitionedCall/strided_slice/stack_2"], "attr": {"shrink_axis_mask": {"i": "1"}, "Index": {"type": "DT_INT32"}, "new_axis_mask": {"i": "0"}, "begin_mask": {"i": "0"}, "end_mask": {"i": "0"}, "T": {"type": "DT_INT32"}, "ellipsis_mask": {"i": "0"}}}, {"name": "StatefulPartitionedCall/sequential/lstm/PartitionedCall/while/body/_50/while/add_1", "op": "AddV2", "input": ["StatefulPartitionedCall/sequential/lstm/PartitionedCall/while/body/_50/while/mul", "StatefulPartitionedCall/sequential/lstm/PartitionedCall/while/body/_50/while/mul_1"], "attr": {"T": {"type": "DT_FLOAT"}}}, {"name": "StatefulPartitionedCall/sequential/lstm_1/zeros_1", "op": "Fill", "input": ["StatefulPartitionedCall/sequential/lstm_1/zeros_1/packed", "StatefulPartitionedCall/sequential/lstm_1/zeros_1/Const"], "attr": {"T": {"type": "DT_FLOAT"}, "index_type": {"type": "DT_INT32"}}}, {"name": "StatefulPartitionedCall/sequential/lstm_1/zeros", "op": "Fill", "input": ["StatefulPartitionedCall/sequential/lstm_1/zeros/packed", "StatefulPartitionedCall/sequential/lstm_1/zeros/Const"], "attr": {"T": {"type": "DT_FLOAT"}, "index_type": {"type": "DT_INT32"}}}, {"name": "StatefulPartitionedCall/sequential/lstm_1/PartitionedCall/while/merge/_129", "op": "Merge", "input": ["StatefulPartitionedCall/sequential/lstm_1/PartitionedCall/while/enter/_118", "StatefulPartitionedCall/sequential/lstm_1/PartitionedCall/while/next_iteration/_165"], "attr": {"N": {"i": "2"}, "T": {"type": "DT_VARIANT"}}}, {"name": "StatefulPartitionedCall/sequential/lstm_1/PartitionedCall/while/enter/_117", "op": "Enter", "input": ["StatefulPartitionedCall/sequential/lstm_1/PartitionedCall/strided_slice"], "attr": {"is_constant": {"b": false}, "frame_name": {"s": "U3RhdGVmdWxQYXJ0aXRpb25lZENhbGwvc2VxdWVudGlhbC9sc3RtXzEvUGFydGl0aW9uZWRDYWxsL3doaWxl"}, "T": {"type": "DT_INT32"}, "parallel_iterations": {"i": "32"}}}, {"name": "StatefulPartitionedCall/sequential/lstm/PartitionedCall/while/body/_50/while/Tanh_1", "op": "Tanh", "input": ["StatefulPartitionedCall/sequential/lstm/PartitionedCall/while/body/_50/while/add_1"], "attr": {"T": {"type": "DT_FLOAT"}}}, {"name": "StatefulPartitionedCall/sequential/lstm/PartitionedCall/while/next_iteration/_103", "op": "NextIteration", "input": ["StatefulPartitionedCall/sequential/lstm/PartitionedCall/while/body/_50/while/add_1", "^StatefulPartitionedCall/sequential/lstm/PartitionedCall/while/loop_body_control/_85"], "attr": {"T": {"type": "DT_FLOAT"}}}, {"name": "StatefulPartitionedCall/sequential/lstm_1/PartitionedCall/while/enter/_116", "op": "Enter", "input": ["StatefulPartitionedCall/sequential/lstm_1/zeros_1"], "attr": {"is_constant": {"b": false}, "frame_name": {"s": "U3RhdGVmdWxQYXJ0aXRpb25lZENhbGwvc2VxdWVudGlhbC9sc3RtXzEvUGFydGl0aW9uZWRDYWxsL3doaWxl"}, "T": {"type": "DT_FLOAT"}, "parallel_iterations": {"i": "32"}}}, {"name": "StatefulPartitionedCall/sequential/lstm_1/PartitionedCall/while/enter/_115", "op": "Enter", "input": ["StatefulPartitionedCall/sequential/lstm_1/zeros"], "attr": {"is_constant": {"b": false}, "frame_name": {"s": "U3RhdGVmdWxQYXJ0aXRpb25lZENhbGwvc2VxdWVudGlhbC9sc3RtXzEvUGFydGl0aW9uZWRDYWxsL3doaWxl"}, "T": {"type": "DT_FLOAT"}, "parallel_iterations": {"i": "32"}}}, {"name": "StatefulPartitionedCall/sequential/lstm_1/PartitionedCall/while/merge/_128", "op": "Merge", "input": ["StatefulPartitionedCall/sequential/lstm_1/PartitionedCall/while/enter/_117", "StatefulPartitionedCall/sequential/lstm_1/PartitionedCall/while/next_iteration/_164"], "attr": {"N": {"i": "2"}, "T": {"type": "DT_INT32"}}}, {"name": "StatefulPartitionedCall/sequential/lstm/PartitionedCall/while/body/_50/while/mul_2", "op": "Mul", "input": ["StatefulPartitionedCall/sequential/lstm/PartitionedCall/while/body/_50/while/Sigmoid_2", "StatefulPartitionedCall/sequential/lstm/PartitionedCall/while/body/_50/while/Tanh_1"], "attr": {"T": {"type": "DT_FLOAT"}}}, {"name": "StatefulPartitionedCall/sequential/lstm_1/PartitionedCall/while/merge/_127", "op": "Merge", "input": ["StatefulPartitionedCall/sequential/lstm_1/PartitionedCall/while/enter/_116", "StatefulPartitionedCall/sequential/lstm_1/PartitionedCall/while/next_iteration/_163"], "attr": {"N": {"i": "2"}, "T": {"type": "DT_FLOAT"}}}, {"name": "StatefulPartitionedCall/sequential/lstm_1/PartitionedCall/while/merge/_126", "op": "Merge", "input": ["StatefulPartitionedCall/sequential/lstm_1/PartitionedCall/while/enter/_115", "StatefulPartitionedCall/sequential/lstm_1/PartitionedCall/while/next_iteration/_162"], "attr": {"N": {"i": "2"}, "T": {"type": "DT_FLOAT"}}}, {"name": "StatefulPartitionedCall/sequential/lstm_1/PartitionedCall/while/cond/_109/while/Less", "op": "Less", "input": ["StatefulPartitionedCall/sequential/lstm_1/PartitionedCall/while/merge/_124", "StatefulPartitionedCall/sequential/lstm_1/PartitionedCall/while/merge/_128", "^StatefulPartitionedCall/sequential/lstm_1/PartitionedCall/while/merge/_122"], "attr": {"T": {"type": "DT_INT32"}}}, {"name": "StatefulPartitionedCall/sequential/lstm/PartitionedCall/while/next_iteration/_102", "op": "NextIteration", "input": ["StatefulPartitionedCall/sequential/lstm/PartitionedCall/while/body/_50/while/mul_2", "^StatefulPartitionedCall/sequential/lstm/PartitionedCall/while/loop_body_control/_85"], "attr": {"T": {"type": "DT_FLOAT"}}}, {"name": "StatefulPartitionedCall/sequential/lstm/PartitionedCall/while/body/_50/while/TensorArrayV2Write/TensorListSetItem", "op": "TensorListSetItem", "input": ["StatefulPartitionedCall/sequential/lstm/PartitionedCall/while/StatefulPartitionedCall/sequential/lstm/PartitionedCall/TensorArrayV2_1_switch/_77:1", "Func/StatefulPartitionedCall/sequential/lstm/PartitionedCall/while/body/_50/input/_185", "StatefulPartitionedCall/sequential/lstm/PartitionedCall/while/body/_50/while/mul_2"], "attr": {"element_dtype": {"type": "DT_FLOAT"}, "resize_if_index_out_of_bounds": {"b": false}}, "experimentalType": {"typeId": "TFT_PRODUCT", "args": [{"typeId": "TFT_ARRAY", "args": [{"typeId": "TFT_TENSOR", "args": [{"typeId": "TFT_FLOAT"}]}]}]}}, {"name": "StatefulPartitionedCall/sequential/lstm_1/PartitionedCall/while/LoopCond/_133", "op": "LoopCond", "input": ["StatefulPartitionedCall/sequential/lstm_1/PartitionedCall/while/cond/_109/while/Less"]}, {"name": "StatefulPartitionedCall/sequential/lstm/PartitionedCall/while/next_iteration/_101", "op": "NextIteration", "input": ["StatefulPartitionedCall/sequential/lstm/PartitionedCall/while/body/_50/while/TensorArrayV2Write/TensorListSetItem", "^StatefulPartitionedCall/sequential/lstm/PartitionedCall/while/loop_body_control/_85"], "attr": {"T": {"type": "DT_VARIANT"}}}, {"name": "StatefulPartitionedCall/sequential/lstm_1/PartitionedCall/while/Func/StatefulPartitionedCall/sequential/lstm_1/PartitionedCall/input/_40_switch/_139", "op": "Switch", "input": ["StatefulPartitionedCall/sequential/lstm_1/PartitionedCall/while/merge/_127", "StatefulPartitionedCall/sequential/lstm_1/PartitionedCall/while/LoopCond/_133"], "attr": {"T": {"type": "DT_FLOAT"}}}, {"name": "StatefulPartitionedCall/sequential/lstm_1/PartitionedCall/while/StatefulPartitionedCall/sequential/lstm_1/PartitionedCall/TensorArrayUnstack/TensorListFromTensor_switch/_141", "op": "Switch", "input": ["StatefulPartitionedCall/sequential/lstm_1/PartitionedCall/while/merge/_129", "StatefulPartitionedCall/sequential/lstm_1/PartitionedCall/while/LoopCond/_133"], "attr": {"T": {"type": "DT_VARIANT"}}}, {"name": "StatefulPartitionedCall/sequential/lstm_1/PartitionedCall/while/Func/StatefulPartitionedCall/sequential/lstm_1/PartitionedCall/input/_41_switch/_142", "op": "Switch", "input": ["StatefulPartitionedCall/sequential/lstm_1/PartitionedCall/while/merge/_130", "StatefulPartitionedCall/sequential/lstm_1/PartitionedCall/while/LoopCond/_133"], "attr": {"T": {"type": "DT_FLOAT"}}}, {"name": "StatefulPartitionedCall/sequential/lstm_1/PartitionedCall/while/Func/StatefulPartitionedCall/sequential/lstm_1/PartitionedCall/input/_39_switch/_138", "op": "Switch", "input": ["StatefulPartitionedCall/sequential/lstm_1/PartitionedCall/while/merge/_126", "StatefulPartitionedCall/sequential/lstm_1/PartitionedCall/while/LoopCond/_133"], "attr": {"T": {"type": "DT_FLOAT"}}}, {"name": "StatefulPartitionedCall/sequential/lstm_1/PartitionedCall/while/Func/StatefulPartitionedCall/sequential/lstm_1/PartitionedCall/input/_42_switch/_143", "op": "Switch", "input": ["StatefulPartitionedCall/sequential/lstm_1/PartitionedCall/while/merge/_131", "StatefulPartitionedCall/sequential/lstm_1/PartitionedCall/while/LoopCond/_133"], "attr": {"T": {"type": "DT_FLOAT"}}}, {"name": "StatefulPartitionedCall/sequential/lstm_1/PartitionedCall/while/Func/StatefulPartitionedCall/sequential/lstm_1/PartitionedCall/input/_43_switch/_144", "op": "Switch", "input": ["StatefulPartitionedCall/sequential/lstm_1/PartitionedCall/while/merge/_132", "StatefulPartitionedCall/sequential/lstm_1/PartitionedCall/while/LoopCond/_133"], "attr": {"T": {"type": "DT_FLOAT"}}}, {"name": "StatefulPartitionedCall/sequential/lstm_1/PartitionedCall/while/StatefulPartitionedCall/sequential/lstm_1/PartitionedCall/time_switch/_136", "op": "Switch", "input": ["StatefulPartitionedCall/sequential/lstm_1/PartitionedCall/while/merge/_124", "StatefulPartitionedCall/sequential/lstm_1/PartitionedCall/while/LoopCond/_133"], "attr": {"T": {"type": "DT_INT32"}}}, {"name": "StatefulPartitionedCall/sequential/lstm_1/PartitionedCall/while/StatefulPartitionedCall/sequential/lstm_1/PartitionedCall/while/loop_counter_switch/_134", "op": "Switch", "input": ["StatefulPartitionedCall/sequential/lstm_1/PartitionedCall/while/merge/_122", "StatefulPartitionedCall/sequential/lstm_1/PartitionedCall/while/LoopCond/_133"], "attr": {"T": {"type": "DT_INT32"}}}, {"name": "StatefulPartitionedCall/sequential/lstm_1/PartitionedCall/while/StatefulPartitionedCall/sequential/lstm_1/PartitionedCall/TensorArrayV2_1_switch/_137", "op": "Switch", "input": ["StatefulPartitionedCall/sequential/lstm_1/PartitionedCall/while/merge/_125", "StatefulPartitionedCall/sequential/lstm_1/PartitionedCall/while/LoopCond/_133"], "attr": {"T": {"type": "DT_VARIANT"}}}, {"name": "StatefulPartitionedCall/sequential/lstm_1/PartitionedCall/while/StatefulPartitionedCall/sequential/lstm_1/PartitionedCall/strided_slice_switch/_140", "op": "Switch", "input": ["StatefulPartitionedCall/sequential/lstm_1/PartitionedCall/while/merge/_128", "StatefulPartitionedCall/sequential/lstm_1/PartitionedCall/while/LoopCond/_133"], "attr": {"T": {"type": "DT_INT32"}}}, {"name": "StatefulPartitionedCall/sequential/lstm_1/PartitionedCall/while/loop_body_control/_145", "op": "Identity", "input": ["StatefulPartitionedCall/sequential/lstm_1/PartitionedCall/while/StatefulPartitionedCall/sequential/lstm_1/PartitionedCall/while/loop_counter_switch/_134:1"], "attr": {"_has_manual_control_dependencies": {"b": true}, "T": {"type": "DT_INT32"}}}, {"name": "StatefulPartitionedCall/sequential/lstm_1/PartitionedCall/while/exit/_149", "op": "Exit", "input": ["StatefulPartitionedCall/sequential/lstm_1/PartitionedCall/while/StatefulPartitionedCall/sequential/lstm_1/PartitionedCall/TensorArrayV2_1_switch/_137"], "attr": {"T": {"type": "DT_VARIANT"}}}, {"name": "StatefulPartitionedCall/sequential/lstm_1/PartitionedCall/while/body/_110/while/TensorArrayV2Write/TensorListSetItem/index", "op": "Const", "input": ["^StatefulPartitionedCall/sequential/lstm_1/PartitionedCall/while/loop_body_control/_145"], "attr": {"value": {"tensor": {"dtype": "DT_INT32", "tensorShape": {}}}, "dtype": {"type": "DT_INT32"}}}, {"name": "StatefulPartitionedCall/sequential/lstm_1/PartitionedCall/while/body/_110/while/split/split_dim", "op": "Const", "input": ["^StatefulPartitionedCall/sequential/lstm_1/PartitionedCall/while/loop_body_control/_145"], "attr": {"value": {"tensor": {"dtype": "DT_INT32", "tensorShape": {}}}, "dtype": {"type": "DT_INT32"}}}, {"name": "StatefulPartitionedCall/sequential/lstm_1/PartitionedCall/while/next_iteration/_165", "op": "NextIteration", "input": ["StatefulPartitionedCall/sequential/lstm_1/PartitionedCall/while/StatefulPartitionedCall/sequential/lstm_1/PartitionedCall/TensorArrayUnstack/TensorListFromTensor_switch/_141:1", "^StatefulPartitionedCall/sequential/lstm_1/PartitionedCall/while/loop_body_control/_145"], "attr": {"T": {"type": "DT_VARIANT"}}}, {"name": "StatefulPartitionedCall/sequential/lstm_1/PartitionedCall/while/body/_110/while/TensorArrayV2Read/TensorListGetItem/element_shape", "op": "Const", "input": ["^StatefulPartitionedCall/sequential/lstm_1/PartitionedCall/while/loop_body_control/_145"], "attr": {"value": {"tensor": {"dtype": "DT_INT32", "tensorShape": {"dim": [{"size": "2"}]}}}, "dtype": {"type": "DT_INT32"}}}, {"name": "StatefulPartitionedCall/sequential/lstm_1/PartitionedCall/while/next_iteration/_166", "op": "NextIteration", "input": ["StatefulPartitionedCall/sequential/lstm_1/PartitionedCall/while/Func/StatefulPartitionedCall/sequential/lstm_1/PartitionedCall/input/_41_switch/_142:1", "^StatefulPartitionedCall/sequential/lstm_1/PartitionedCall/while/loop_body_control/_145"], "attr": {"T": {"type": "DT_FLOAT"}}}, {"name": "StatefulPartitionedCall/sequential/lstm_1/PartitionedCall/while/next_iteration/_167", "op": "NextIteration", "input": ["StatefulPartitionedCall/sequential/lstm_1/PartitionedCall/while/Func/StatefulPartitionedCall/sequential/lstm_1/PartitionedCall/input/_42_switch/_143:1", "^StatefulPartitionedCall/sequential/lstm_1/PartitionedCall/while/loop_body_control/_145"], "attr": {"T": {"type": "DT_FLOAT"}}}, {"name": "StatefulPartitionedCall/sequential/lstm_1/PartitionedCall/while/body/_110/while/MatMul_1", "op": "MatMul", "input": ["StatefulPartitionedCall/sequential/lstm_1/PartitionedCall/while/Func/StatefulPartitionedCall/sequential/lstm_1/PartitionedCall/input/_39_switch/_138:1", "StatefulPartitionedCall/sequential/lstm_1/PartitionedCall/while/Func/StatefulPartitionedCall/sequential/lstm_1/PartitionedCall/input/_42_switch/_143:1", "^StatefulPartitionedCall/sequential/lstm_1/PartitionedCall/while/loop_body_control/_145"], "device": "/device:CPU:0", "attr": {"transpose_a": {"b": false}, "T": {"type": "DT_FLOAT"}, "transpose_b": {"b": false}}}, {"name": "StatefulPartitionedCall/sequential/lstm_1/PartitionedCall/while/next_iteration/_168", "op": "NextIteration", "input": ["StatefulPartitionedCall/sequential/lstm_1/PartitionedCall/while/Func/StatefulPartitionedCall/sequential/lstm_1/PartitionedCall/input/_43_switch/_144:1", "^StatefulPartitionedCall/sequential/lstm_1/PartitionedCall/while/loop_body_control/_145"], "attr": {"T": {"type": "DT_FLOAT"}}}, {"name": "StatefulPartitionedCall/sequential/lstm_1/PartitionedCall/while/body/_110/while/add_2/y", "op": "Const", "input": ["^StatefulPartitionedCall/sequential/lstm_1/PartitionedCall/while/loop_body_control/_145"], "attr": {"value": {"tensor": {"dtype": "DT_INT32", "tensorShape": {}}}, "dtype": {"type": "DT_INT32"}}}, {"name": "StatefulPartitionedCall/sequential/lstm_1/PartitionedCall/while/body/_110/while/add_3/y", "op": "Const", "input": ["^StatefulPartitionedCall/sequential/lstm_1/PartitionedCall/while/loop_body_control/_145"], "attr": {"value": {"tensor": {"dtype": "DT_INT32", "tensorShape": {}}}, "dtype": {"type": "DT_INT32"}}}, {"name": "StatefulPartitionedCall/sequential/lstm_1/PartitionedCall/while/next_iteration/_164", "op": "NextIteration", "input": ["StatefulPartitionedCall/sequential/lstm_1/PartitionedCall/while/StatefulPartitionedCall/sequential/lstm_1/PartitionedCall/strided_slice_switch/_140:1", "^StatefulPartitionedCall/sequential/lstm_1/PartitionedCall/while/loop_body_control/_145"], "attr": {"T": {"type": "DT_INT32"}}}, {"name": "StatefulPartitionedCall/sequential/lstm_1/PartitionedCall/TensorArrayV2Stack/TensorListStack", "op": "TensorListStack", "input": ["StatefulPartitionedCall/sequential/lstm_1/PartitionedCall/while/exit/_149", "StatefulPartitionedCall/sequential/lstm_1/PartitionedCall/TensorArrayV2Stack/TensorListStack/element_shape"], "attr": {"num_elements": {"i": "1"}, "element_dtype": {"type": "DT_FLOAT"}}}, {"name": "StatefulPartitionedCall/sequential/lstm_1/PartitionedCall/while/body/_110/while/TensorArrayV2Read/TensorListGetItem", "op": "TensorListGetItem", "input": ["StatefulPartitionedCall/sequential/lstm_1/PartitionedCall/while/StatefulPartitionedCall/sequential/lstm_1/PartitionedCall/TensorArrayUnstack/TensorListFromTensor_switch/_141:1", "StatefulPartitionedCall/sequential/lstm_1/PartitionedCall/while/StatefulPartitionedCall/sequential/lstm_1/PartitionedCall/time_switch/_136:1", "StatefulPartitionedCall/sequential/lstm_1/PartitionedCall/while/body/_110/while/TensorArrayV2Read/TensorListGetItem/element_shape"], "attr": {"element_dtype": {"type": "DT_FLOAT"}}}, {"name": "StatefulPartitionedCall/sequential/lstm_1/PartitionedCall/while/body/_110/while/add_2", "op": "AddV2", "input": ["StatefulPartitionedCall/sequential/lstm_1/PartitionedCall/while/StatefulPartitionedCall/sequential/lstm_1/PartitionedCall/time_switch/_136:1", "StatefulPartitionedCall/sequential/lstm_1/PartitionedCall/while/body/_110/while/add_2/y"], "attr": {"T": {"type": "DT_INT32"}}}, {"name": "StatefulPartitionedCall/sequential/lstm_1/PartitionedCall/while/body/_110/while/add_3", "op": "AddV2", "input": ["StatefulPartitionedCall/sequential/lstm_1/PartitionedCall/while/StatefulPartitionedCall/sequential/lstm_1/PartitionedCall/while/loop_counter_switch/_134:1", "StatefulPartitionedCall/sequential/lstm_1/PartitionedCall/while/body/_110/while/add_3/y"], "attr": {"T": {"type": "DT_INT32"}}}, {"name": "StatefulPartitionedCall/sequential/lstm_1/PartitionedCall/strided_slice_2", "op": "StridedSlice", "input": ["StatefulPartitionedCall/sequential/lstm_1/PartitionedCall/TensorArrayV2Stack/TensorListStack", "StatefulPartitionedCall/sequential/lstm_1/PartitionedCall/strided_slice_2/stack", "StatefulPartitionedCall/sequential/lstm_1/PartitionedCall/strided_slice_2/stack_1", "StatefulPartitionedCall/sequential/lstm_1/PartitionedCall/strided_slice_2/stack_2"], "attr": {"shrink_axis_mask": {"i": "1"}, "Index": {"type": "DT_INT32"}, "new_axis_mask": {"i": "0"}, "begin_mask": {"i": "0"}, "end_mask": {"i": "0"}, "T": {"type": "DT_FLOAT"}, "ellipsis_mask": {"i": "0"}}}, {"name": "StatefulPartitionedCall/sequential/lstm_1/PartitionedCall/while/body/_110/while/add", "op": "_FusedMatMul", "input": ["StatefulPartitionedCall/sequential/lstm_1/PartitionedCall/while/body/_110/while/TensorArrayV2Read/TensorListGetItem", "StatefulPartitionedCall/sequential/lstm_1/PartitionedCall/while/Func/StatefulPartitionedCall/sequential/lstm_1/PartitionedCall/input/_41_switch/_142:1", "StatefulPartitionedCall/sequential/lstm_1/PartitionedCall/while/body/_110/while/MatMul_1"], "device": "/device:CPU:0", "attr": {"transpose_a": {"b": false}, "transpose_b": {"b": false}, "fused_ops": {"list": {"s": ["Qmlhc0FkZA=="]}}, "num_args": {"i": "1"}, "leakyrelu_alpha": {"f": 0.2}, "epsilon": {"f": 0.0}, "T": {"type": "DT_FLOAT"}}}, {"name": "StatefulPartitionedCall/sequential/lstm_1/PartitionedCall/while/next_iteration/_160", "op": "NextIteration", "input": ["StatefulPartitionedCall/sequential/lstm_1/PartitionedCall/while/body/_110/while/add_2", "^StatefulPartitionedCall/sequential/lstm_1/PartitionedCall/while/loop_body_control/_145"], "attr": {"T": {"type": "DT_INT32"}}}, {"name": "StatefulPartitionedCall/sequential/lstm_1/PartitionedCall/while/next_iteration/_158", "op": "NextIteration", "input": ["StatefulPartitionedCall/sequential/lstm_1/PartitionedCall/while/body/_110/while/add_3", "^StatefulPartitionedCall/sequential/lstm_1/PartitionedCall/while/loop_body_control/_145"], "attr": {"T": {"type": "DT_INT32"}}}, {"name": "StatefulPartitionedCall/sequential/batch_normalization_1/batchnorm/mul_1", "op": "Mul", "input": ["StatefulPartitionedCall/sequential/lstm_1/PartitionedCall/strided_slice_2", "StatefulPartitionedCall/sequential/batch_normalization_1/batchnorm/mul"], "attr": {"T": {"type": "DT_FLOAT"}}}, {"name": "StatefulPartitionedCall/sequential/lstm_1/PartitionedCall/while/body/_110/while/BiasAdd", "op": "BiasAdd", "input": ["StatefulPartitionedCall/sequential/lstm_1/PartitionedCall/while/body/_110/while/add", "StatefulPartitionedCall/sequential/lstm_1/PartitionedCall/while/Func/StatefulPartitionedCall/sequential/lstm_1/PartitionedCall/input/_43_switch/_144:1"], "attr": {"data_format": {"s": "TkhXQw=="}, "T": {"type": "DT_FLOAT"}}}, {"name": "StatefulPartitionedCall/sequential/batch_normalization_1/batchnorm/add_1", "op": "AddV2", "input": ["StatefulPartitionedCall/sequential/batch_normalization_1/batchnorm/mul_1", "StatefulPartitionedCall/sequential/batch_normalization_1/batchnorm/sub"], "attr": {"T": {"type": "DT_FLOAT"}}}, {"name": "StatefulPartitionedCall/sequential/lstm_1/PartitionedCall/while/body/_110/while/split", "op": "Split", "input": ["StatefulPartitionedCall/sequential/lstm_1/PartitionedCall/while/body/_110/while/split/split_dim", "StatefulPartitionedCall/sequential/lstm_1/PartitionedCall/while/body/_110/while/BiasAdd"], "attr": {"num_split": {"i": "4"}, "T": {"type": "DT_FLOAT"}}}, {"name": "StatefulPartitionedCall/sequential/dense/Relu", "op": "_FusedMatMul", "input": ["StatefulPartitionedCall/sequential/batch_normalization_1/batchnorm/add_1", "StatefulPartitionedCall/sequential/dense/MatMul/ReadVariableOp", "StatefulPartitionedCall/sequential/dense/BiasAdd/ReadVariableOp"], "device": "/device:CPU:0", "attr": {"transpose_a": {"b": false}, "transpose_b": {"b": false}, "fused_ops": {"list": {"s": ["Qmlhc0FkZA==", "UmVsdQ=="]}}, "num_args": {"i": "1"}, "leakyrelu_alpha": {"f": 0.2}, "epsilon": {"f": 0.0}, "T": {"type": "DT_FLOAT"}}}, {"name": "StatefulPartitionedCall/sequential/lstm_1/PartitionedCall/while/body/_110/while/Sigmoid", "op": "Sigmoid", "input": ["StatefulPartitionedCall/sequential/lstm_1/PartitionedCall/while/body/_110/while/split"], "attr": {"T": {"type": "DT_FLOAT"}}}, {"name": "StatefulPartitionedCall/sequential/lstm_1/PartitionedCall/while/body/_110/while/Sigmoid_1", "op": "Sigmoid", "input": ["StatefulPartitionedCall/sequential/lstm_1/PartitionedCall/while/body/_110/while/split:1"], "attr": {"T": {"type": "DT_FLOAT"}}}, {"name": "StatefulPartitionedCall/sequential/lstm_1/PartitionedCall/while/body/_110/while/Tanh", "op": "Tanh", "input": ["StatefulPartitionedCall/sequential/lstm_1/PartitionedCall/while/body/_110/while/split:2"], "attr": {"T": {"type": "DT_FLOAT"}}}, {"name": "StatefulPartitionedCall/sequential/lstm_1/PartitionedCall/while/body/_110/while/Sigmoid_2", "op": "Sigmoid", "input": ["StatefulPartitionedCall/sequential/lstm_1/PartitionedCall/while/body/_110/while/split:3"], "attr": {"T": {"type": "DT_FLOAT"}}}, {"name": "StatefulPartitionedCall/sequential/batch_normalization_2/batchnorm/mul_1", "op": "Mul", "input": ["StatefulPartitionedCall/sequential/dense/Relu", "StatefulPartitionedCall/sequential/batch_normalization_2/batchnorm/mul"], "attr": {"T": {"type": "DT_FLOAT"}}}, {"name": "StatefulPartitionedCall/sequential/lstm_1/PartitionedCall/while/body/_110/while/mul", "op": "Mul", "input": ["StatefulPartitionedCall/sequential/lstm_1/PartitionedCall/while/body/_110/while/Sigmoid_1", "StatefulPartitionedCall/sequential/lstm_1/PartitionedCall/while/Func/StatefulPartitionedCall/sequential/lstm_1/PartitionedCall/input/_40_switch/_139:1"], "attr": {"T": {"type": "DT_FLOAT"}}}, {"name": "StatefulPartitionedCall/sequential/lstm_1/PartitionedCall/while/body/_110/while/mul_1", "op": "Mul", "input": ["StatefulPartitionedCall/sequential/lstm_1/PartitionedCall/while/body/_110/while/Sigmoid", "StatefulPartitionedCall/sequential/lstm_1/PartitionedCall/while/body/_110/while/Tanh"], "attr": {"T": {"type": "DT_FLOAT"}}}, {"name": "StatefulPartitionedCall/sequential/batch_normalization_2/batchnorm/add_1", "op": "AddV2", "input": ["StatefulPartitionedCall/sequential/batch_normalization_2/batchnorm/mul_1", "StatefulPartitionedCall/sequential/batch_normalization_2/batchnorm/sub"], "attr": {"T": {"type": "DT_FLOAT"}}}, {"name": "StatefulPartitionedCall/sequential/lstm_1/PartitionedCall/while/body/_110/while/add_1", "op": "AddV2", "input": ["StatefulPartitionedCall/sequential/lstm_1/PartitionedCall/while/body/_110/while/mul", "StatefulPartitionedCall/sequential/lstm_1/PartitionedCall/while/body/_110/while/mul_1"], "attr": {"T": {"type": "DT_FLOAT"}}}, {"name": "StatefulPartitionedCall/sequential/dense_1/Relu", "op": "_FusedMatMul", "input": ["StatefulPartitionedCall/sequential/batch_normalization_2/batchnorm/add_1", "StatefulPartitionedCall/sequential/dense_1/MatMul/ReadVariableOp", "StatefulPartitionedCall/sequential/dense_1/BiasAdd/ReadVariableOp"], "device": "/device:CPU:0", "attr": {"transpose_a": {"b": false}, "transpose_b": {"b": false}, "fused_ops": {"list": {"s": ["Qmlhc0FkZA==", "UmVsdQ=="]}}, "num_args": {"i": "1"}, "leakyrelu_alpha": {"f": 0.2}, "epsilon": {"f": 0.0}, "T": {"type": "DT_FLOAT"}}}, {"name": "StatefulPartitionedCall/sequential/lstm_1/PartitionedCall/while/body/_110/while/Tanh_1", "op": "Tanh", "input": ["StatefulPartitionedCall/sequential/lstm_1/PartitionedCall/while/body/_110/while/add_1"], "attr": {"T": {"type": "DT_FLOAT"}}}, {"name": "StatefulPartitionedCall/sequential/lstm_1/PartitionedCall/while/next_iteration/_163", "op": "NextIteration", "input": ["StatefulPartitionedCall/sequential/lstm_1/PartitionedCall/while/body/_110/while/add_1", "^StatefulPartitionedCall/sequential/lstm_1/PartitionedCall/while/loop_body_control/_145"], "attr": {"T": {"type": "DT_FLOAT"}}}, {"name": "StatefulPartitionedCall/sequential/dense_2/BiasAdd", "op": "_FusedMatMul", "input": ["StatefulPartitionedCall/sequential/dense_1/Relu", "StatefulPartitionedCall/sequential/dense_2/MatMul/ReadVariableOp", "StatefulPartitionedCall/sequential/dense_2/BiasAdd/ReadVariableOp"], "device": "/device:CPU:0", "attr": {"transpose_a": {"b": false}, "transpose_b": {"b": false}, "fused_ops": {"list": {"s": ["Qmlhc0FkZA=="]}}, "leakyrelu_alpha": {"f": 0.2}, "num_args": {"i": "1"}, "epsilon": {"f": 0.0}, "T": {"type": "DT_FLOAT"}}}, {"name": "StatefulPartitionedCall/sequential/lstm_1/PartitionedCall/while/body/_110/while/mul_2", "op": "Mul", "input": ["StatefulPartitionedCall/sequential/lstm_1/PartitionedCall/while/body/_110/while/Sigmoid_2", "StatefulPartitionedCall/sequential/lstm_1/PartitionedCall/while/body/_110/while/Tanh_1"], "attr": {"T": {"type": "DT_FLOAT"}}}, {"name": "StatefulPartitionedCall/sequential/dense_2/Softmax", "op": "Softmax", "input": ["StatefulPartitionedCall/sequential/dense_2/BiasAdd"], "attr": {"T": {"type": "DT_FLOAT"}}}, {"name": "StatefulPartitionedCall/sequential/lstm_1/PartitionedCall/while/next_iteration/_162", "op": "NextIteration", "input": ["StatefulPartitionedCall/sequential/lstm_1/PartitionedCall/while/body/_110/while/mul_2", "^StatefulPartitionedCall/sequential/lstm_1/PartitionedCall/while/loop_body_control/_145"], "attr": {"T": {"type": "DT_FLOAT"}}}, {"name": "StatefulPartitionedCall/sequential/lstm_1/PartitionedCall/while/body/_110/while/TensorArrayV2Write/TensorListSetItem", "op": "TensorListSetItem", "input": ["StatefulPartitionedCall/sequential/lstm_1/PartitionedCall/while/StatefulPartitionedCall/sequential/lstm_1/PartitionedCall/TensorArrayV2_1_switch/_137:1", "StatefulPartitionedCall/sequential/lstm_1/PartitionedCall/while/body/_110/while/TensorArrayV2Write/TensorListSetItem/index", "StatefulPartitionedCall/sequential/lstm_1/PartitionedCall/while/body/_110/while/mul_2"], "attr": {"element_dtype": {"type": "DT_FLOAT"}, "resize_if_index_out_of_bounds": {"b": false}}, "experimentalType": {"typeId": "TFT_PRODUCT", "args": [{"typeId": "TFT_ARRAY", "args": [{"typeId": "TFT_TENSOR", "args": [{"typeId": "TFT_FLOAT"}]}]}]}}, {"name": "Identity", "op": "Identity", "input": ["StatefulPartitionedCall/sequential/dense_2/Softmax"], "attr": {"T": {"type": "DT_FLOAT"}}}, {"name": "StatefulPartitionedCall/sequential/lstm_1/PartitionedCall/while/next_iteration/_161", "op": "NextIteration", "input": ["StatefulPartitionedCall/sequential/lstm_1/PartitionedCall/while/body/_110/while/TensorArrayV2Write/TensorListSetItem", "^StatefulPartitionedCall/sequential/lstm_1/PartitionedCall/while/loop_body_control/_145"], "attr": {"T": {"type": "DT_VARIANT"}}}], "library": {}, "versions": {"producer": 1482}}, "weightsManifest": [{"paths": ["group1-shard1of1.bin"], "weights": [{"name": "StatefulPartitionedCall/sequential/lstm_1/PartitionedCall/TensorArrayV2_1/element_shape", "shape": [2], "dtype": "int32"}, {"name": "StatefulPartitionedCall/sequential/lstm_1/PartitionedCall/TensorArrayV2_1/num_elements", "shape": [], "dtype": "int32"}, {"name": "StatefulPartitionedCall/sequential/lstm_1/zeros_1/packed/1", "shape": [], "dtype": "int32"}, {"name": "StatefulPartitionedCall/sequential/lstm_1/zeros_1/Const", "shape": [], "dtype": "float32"}, {"name": "StatefulPartitionedCall/sequential/lstm_1/PartitionedCall/TensorArrayUnstack/TensorListFromTensor/element_shape", "shape": [2], "dtype": "int32"}, {"name": "StatefulPartitionedCall/sequential/lstm_1/Read/ReadVariableOp", "shape": [128, 256], "dtype": "float32"}, {"name": "StatefulPartitionedCall/sequential/lstm_1/strided_slice/stack", "shape": [1], "dtype": "int32"}, {"name": "StatefulPartitionedCall/sequential/lstm_1/strided_slice/stack_1", "shape": [1], "dtype": "int32"}, {"name": "StatefulPartitionedCall/sequential/lstm_1/strided_slice/stack_2", "shape": [1], "dtype": "int32"}, {"name": "StatefulPartitionedCall/sequential/lstm_1/zeros/packed/1", "shape": [], "dtype": "int32"}, {"name": "StatefulPartitionedCall/sequential/lstm_1/zeros/Const", "shape": [], "dtype": "float32"}, {"name": "StatefulPartitionedCall/sequential/lstm_1/Read_1/ReadVariableOp", "shape": [64, 256], "dtype": "float32"}, {"name": "StatefulPartitionedCall/sequential/lstm_1/Read_2/ReadVariableOp", "shape": [256], "dtype": "float32"}, {"name": "StatefulPartitionedCall/sequential/lstm_1/PartitionedCall/time", "shape": [], "dtype": "int32"}, {"name": "StatefulPartitionedCall/sequential/lstm/PartitionedCall/TensorArrayV2_1/element_shape", "shape": [2], "dtype": "int32"}, {"name": "StatefulPartitionedCall/sequential/lstm/zeros_1/packed/1", "shape": [], "dtype": "int32"}, {"name": "StatefulPartitionedCall/sequential/lstm/zeros_1/Const", "shape": [], "dtype": "float32"}, {"name": "StatefulPartitionedCall/sequential/lstm/PartitionedCall/TensorArrayUnstack/TensorListFromTensor/element_shape", "shape": [2], "dtype": "int32"}, {"name": "StatefulPartitionedCall/sequential/lstm/Read/ReadVariableOp", "shape": [63, 512], "dtype": "float32"}, {"name": "StatefulPartitionedCall/sequential/lstm/strided_slice/stack", "shape": [1], "dtype": "int32"}, {"name": "StatefulPartitionedCall/sequential/lstm/strided_slice/stack_1", "shape": [1], "dtype": "int32"}, {"name": "StatefulPartitionedCall/sequential/lstm/strided_slice/stack_2", "shape": [1], "dtype": "int32"}, {"name": "StatefulPartitionedCall/sequential/lstm/zeros/packed/1", "shape": [], "dtype": "int32"}, {"name": "StatefulPartitionedCall/sequential/lstm/zeros/Const", "shape": [], "dtype": "float32"}, {"name": "StatefulPartitionedCall/sequential/lstm/Read_1/ReadVariableOp", "shape": [128, 512], "dtype": "float32"}, {"name": "StatefulPartitionedCall/sequential/lstm/Read_2/ReadVariableOp", "shape": [512], "dtype": "float32"}, {"name": "StatefulPartitionedCall/sequential/lstm/PartitionedCall/time", "shape": [], "dtype": "int32"}, {"name": "StatefulPartitionedCall/sequential/lstm/ones_like/Const", "shape": [], "dtype": "float32"}, {"name": "StatefulPartitionedCall/sequential/lstm/PartitionedCall/transpose/perm", "shape": [3], "dtype": "int32"}, {"name": "StatefulPartitionedCall/sequential/lstm/PartitionedCall/strided_slice/stack", "shape": [1], "dtype": "int32"}, {"name": "StatefulPartitionedCall/sequential/lstm/PartitionedCall/strided_slice/stack_1", "shape": [1], "dtype": "int32"}, {"name": "StatefulPartitionedCall/sequential/lstm/PartitionedCall/strided_slice/stack_2", "shape": [1], "dtype": "int32"}, {"name": "StatefulPartitionedCall/sequential/lstm/PartitionedCall/while/loop_counter", "shape": [], "dtype": "int32"}, {"name": "StatefulPartitionedCall/sequential/lstm/PartitionedCall/TensorArrayV2Stack/TensorListStack/element_shape", "shape": [2], "dtype": "int32"}, {"name": "StatefulPartitionedCall/sequential/lstm/PartitionedCall/transpose_1/perm", "shape": [3], "dtype": "int32"}, {"name": "StatefulPartitionedCall/sequential/batch_normalization/batchnorm/mul", "shape": [128], "dtype": "float32"}, {"name": "StatefulPartitionedCall/sequential/batch_normalization/batchnorm/sub", "shape": [128], "dtype": "float32"}, {"name": "StatefulPartitionedCall/sequential/lstm_1/PartitionedCall/transpose/perm", "shape": [3], "dtype": "int32"}, {"name": "StatefulPartitionedCall/sequential/lstm_1/PartitionedCall/strided_slice/stack", "shape": [1], "dtype": "int32"}, {"name": "StatefulPartitionedCall/sequential/lstm_1/PartitionedCall/strided_slice/stack_1", "shape": [1], "dtype": "int32"}, {"name": "StatefulPartitionedCall/sequential/lstm_1/PartitionedCall/strided_slice/stack_2", "shape": [1], "dtype": "int32"}, {"name": "StatefulPartitionedCall/sequential/lstm_1/PartitionedCall/while/loop_counter", "shape": [], "dtype": "int32"}, {"name": "StatefulPartitionedCall/sequential/lstm_1/PartitionedCall/TensorArrayV2Stack/TensorListStack/element_shape", "shape": [2], "dtype": "int32"}, {"name": "StatefulPartitionedCall/sequential/lstm_1/PartitionedCall/strided_slice_2/stack", "shape": [1], "dtype": "int32"}, {"name": "StatefulPartitionedCall/sequential/lstm_1/PartitionedCall/strided_slice_2/stack_1", "shape": [1], "dtype": "int32"}, {"name": "StatefulPartitionedCall/sequential/lstm_1/PartitionedCall/strided_slice_2/stack_2", "shape": [1], "dtype": "int32"}, {"name": "StatefulPartitionedCall/sequential/batch_normalization_1/batchnorm/mul", "shape": [64], "dtype": "float32"}, {"name": "StatefulPartitionedCall/sequential/batch_normalization_1/batchnorm/sub", "shape": [64], "dtype": "float32"}, {"name": "StatefulPartitionedCall/sequential/dense/MatMul/ReadVariableOp", "shape": [64, 64], "dtype": "float32"}, {"name": "StatefulPartitionedCall/sequential/dense/BiasAdd/ReadVariableOp", "shape": [64], "dtype": "float32"}, {"name": "StatefulPartitionedCall/sequential/batch_normalization_2/batchnorm/mul", "shape": [64], "dtype": "float32"}, {"name": "StatefulPartitionedCall/sequential/batch_normalization_2/batchnorm/sub", "shape": [64], "dtype": "float32"}, {"name": "StatefulPartitionedCall/sequential/dense_1/MatMul/ReadVariableOp", "shape": [64, 32], "dtype": "float32"}, {"name": "StatefulPartitionedCall/sequential/dense_1/BiasAdd/ReadVariableOp", "shape": [32], "dtype": "float32"}, {"name": "StatefulPartitionedCall/sequential/dense_2/MatMul/ReadVariableOp", "shape": [32, 40], "dtype": "float32"}, {"name": "StatefulPartitionedCall/sequential/dense_2/BiasAdd/ReadVariableOp", "shape": [40], "dtype": "float32"}, {"name": "StatefulPartitionedCall/sequential/lstm/PartitionedCall/while/body/_50/while/split/split_dim", "shape": [], "dtype": "int32"}, {"name": "StatefulPartitionedCall/sequential/lstm/PartitionedCall/while/body/_50/while/TensorArrayV2Read/TensorListGetItem/element_shape", "shape": [2], "dtype": "int32"}, {"name": "StatefulPartitionedCall/sequential/lstm/PartitionedCall/while/body/_50/while/add_2/y", "shape": [], "dtype": "int32"}, {"name": "StatefulPartitionedCall/sequential/lstm/PartitionedCall/while/body/_50/while/add_3/y", "shape": [], "dtype": "int32"}, {"name": "StatefulPartitionedCall/sequential/lstm_1/PartitionedCall/while/body/_110/while/TensorArrayV2Write/TensorListSetItem/index", "shape": [], "dtype": "int32"}, {"name": "StatefulPartitionedCall/sequential/lstm_1/PartitionedCall/while/body/_110/while/split/split_dim", "shape": [], "dtype": "int32"}, {"name": "StatefulPartitionedCall/sequential/lstm_1/PartitionedCall/while/body/_110/while/TensorArrayV2Read/TensorListGetItem/element_shape", "shape": [2], "dtype": "int32"}, {"name": "StatefulPartitionedCall/sequential/lstm_1/PartitionedCall/while/body/_110/while/add_2/y", "shape": [], "dtype": "int32"}, {"name": "StatefulPartitionedCall/sequential/lstm_1/PartitionedCall/while/body/_110/while/add_3/y", "shape": [], "dtype": "int32"}]}]}